{"format": "graph-model", "generatedBy": "2.5.0", "convertedBy": "TensorFlow.js Converter v3.7.0", "signature": {"outputs": {"Postprocessor/ExpandDims_1": {"name": "Postprocessor/ExpandDims_1"}, "Postprocessor/Slice": {"name": "Postprocessor/Slice"}}}, "modelTopology": {"node": [{"name": "ConstantFolding/Postprocessor/Decode/truediv_4_recip", "op": "Const", "attr": {"value": {"tensor": {"dtype": "DT_FLOAT", "tensorShape": {}}}, "dtype": {"type": "DT_FLOAT"}}}, {"name": "ConstantFolding/Postprocessor/Decode/truediv_5_recip", "op": "Const", "attr": {"value": {"tensor": {"dtype": "DT_FLOAT", "tensorShape": {}}}, "dtype": {"type": "DT_FLOAT"}}}, {"name": "ConstantFolding/Postprocessor/Decode/truediv_recip", "op": "Const", "attr": {"dtype": {"type": "DT_FLOAT"}, "value": {"tensor": {"dtype": "DT_FLOAT", "tensorShape": {}}}}}, {"name": "ConstantFolding/Postprocessor/Decode/get_center_coordinates_and_sizes/truediv_recip", "op": "Const", "attr": {"dtype": {"type": "DT_FLOAT"}, "value": {"tensor": {"dtype": "DT_FLOAT", "tensorShape": {}}}}}, {"name": "ConstantFolding/Postprocessor/Decode/truediv_2_recip", "op": "Const", "attr": {"dtype": {"type": "DT_FLOAT"}, "value": {"tensor": {"dtype": "DT_FLOAT", "tensorShape": {}}}}}, {"name": "ConstantFolding/Postprocessor/Decode/truediv_6_recip", "op": "Const", "attr": {"dtype": {"type": "DT_FLOAT"}, "value": {"tensor": {"dtype": "DT_FLOAT", "tensorShape": {}}}}}, {"name": "ConstantFolding/Postprocessor/Decode/truediv_1_recip", "op": "Const", "attr": {"value": {"tensor": {"dtype": "DT_FLOAT", "tensorShape": {}}}, "dtype": {"type": "DT_FLOAT"}}}, {"name": "ConstantFolding/Postprocessor/Decode/get_center_coordinates_and_sizes/truediv_1_recip", "op": "Const", "attr": {"value": {"tensor": {"dtype": "DT_FLOAT", "tensorShape": {}}}, "dtype": {"type": "DT_FLOAT"}}}, {"name": "Postprocessor/Reshape_1/shape", "op": "Const", "attr": {"value": {"tensor": {"dtype": "DT_INT32", "tensorShape": {"dim": [{"size": "2"}]}}}, "dtype": {"type": "DT_INT32"}}}, {"name": "Postprocessor/Decode/transpose/perm", "op": "Const", "attr": {"dtype": {"type": "DT_INT32"}, "value": {"tensor": {"dtype": "DT_INT32", "tensorShape": {"dim": [{"size": "2"}]}}}}}, {"name": "ConstantFolding/Postprocessor/Decode/truediv_3_recip", "op": "Const", "attr": {"value": {"tensor": {"dtype": "DT_FLOAT", "tensorShape": {}}}, "dtype": {"type": "DT_FLOAT"}}}, {"name": "Postprocessor/ExpandDims", "op": "Const", "attr": {"dtype": {"type": "DT_FLOAT"}, "value": {"tensor": {"dtype": "DT_FLOAT", "tensorShape": {"dim": [{"size": "1"}, {"size": "2034"}, {"size": "4"}]}}}}}, {"name": "Postprocessor/Tile/multiples/1", "op": "Const", "attr": {"value": {"tensor": {"dtype": "DT_INT32", "tensorShape": {}}}, "dtype": {"type": "DT_INT32"}}}, {"name": "Postprocessor/Tile/multiples/2", "op": "Const", "attr": {"dtype": {"type": "DT_INT32"}, "value": {"tensor": {"dtype": "DT_INT32", "tensorShape": {}}}}}, {"name": "Postprocessor/Reshape/shape", "op": "Const", "attr": {"dtype": {"type": "DT_INT32"}, "value": {"tensor": {"dtype": "DT_INT32", "tensorShape": {"dim": [{"size": "2"}]}}}}}, {"name": "Postprocessor/Decode/get_center_coordinates_and_sizes/transpose/perm", "op": "Const", "attr": {"value": {"tensor": {"dtype": "DT_INT32", "tensorShape": {"dim": [{"size": "2"}]}}}, "dtype": {"type": "DT_INT32"}}}, {"name": "ConstantFolding/Postprocessor/Decode/truediv_7_recip", "op": "Const", "attr": {"dtype": {"type": "DT_FLOAT"}, "value": {"tensor": {"dtype": "DT_FLOAT", "tensorShape": {}}}}}, {"name": "Postprocessor/Decode/transpose_1/perm", "op": "Const", "attr": {"value": {"tensor": {"dtype": "DT_INT32", "tensorShape": {"dim": [{"size": "2"}]}}}, "dtype": {"type": "DT_INT32"}}}, {"name": "Postprocessor/strided_slice/stack", "op": "Const", "attr": {"value": {"tensor": {"dtype": "DT_INT32", "tensorShape": {"dim": [{"size": "1"}]}}}, "dtype": {"type": "DT_INT32"}}}, {"name": "Postprocessor/strided_slice/stack_1", "op": "Const", "attr": {"dtype": {"type": "DT_INT32"}, "value": {"tensor": {"dtype": "DT_INT32", "tensorShape": {"dim": [{"size": "1"}]}}}}}, {"name": "Postprocessor/strided_slice/stack_2", "op": "Const", "attr": {"dtype": {"type": "DT_INT32"}, "value": {"tensor": {"dtype": "DT_INT32", "tensorShape": {"dim": [{"size": "1"}]}}}}}, {"name": "BoxPredictor_0/BoxEncodingPredictor/weights", "op": "Const", "attr": {"dtype": {"type": "DT_FLOAT"}, "value": {"tensor": {"dtype": "DT_FLOAT", "tensorShape": {"dim": [{"size": "1"}, {"size": "1"}, {"size": "288"}, {"size": "12"}]}}}}}, {"name": "BoxPredictor_0/BoxEncodingPredictor/biases", "op": "Const", "attr": {"dtype": {"type": "DT_FLOAT"}, "value": {"tensor": {"dtype": "DT_FLOAT", "tensorShape": {"dim": [{"size": "12"}]}}}}}, {"name": "BoxPredictor_0/strided_slice/stack", "op": "Const", "attr": {"dtype": {"type": "DT_INT32"}, "value": {"tensor": {"dtype": "DT_INT32", "tensorShape": {"dim": [{"size": "1"}]}}}}}, {"name": "BoxPredictor_0/strided_slice/stack_1", "op": "Const", "attr": {"dtype": {"type": "DT_INT32"}, "value": {"tensor": {"dtype": "DT_INT32", "tensorShape": {"dim": [{"size": "1"}]}}}}}, {"name": "BoxPredictor_0/strided_slice/stack_2", "op": "Const", "attr": {"dtype": {"type": "DT_INT32"}, "value": {"tensor": {"dtype": "DT_INT32", "tensorShape": {"dim": [{"size": "1"}]}}}}}, {"name": "BoxPredictor_0/Reshape/shape/1", "op": "Const", "attr": {"dtype": {"type": "DT_INT32"}, "value": {"tensor": {"dtype": "DT_INT32", "tensorShape": {}}}}}, {"name": "BoxPredictor_0/Reshape/shape/2", "op": "Const", "attr": {"dtype": {"type": "DT_INT32"}, "value": {"tensor": {"dtype": "DT_INT32", "tensorShape": {}}}}}, {"name": "BoxPredictor_0/Reshape/shape/3", "op": "Const", "attr": {"value": {"tensor": {"dtype": "DT_INT32", "tensorShape": {}}}, "dtype": {"type": "DT_INT32"}}}, {"name": "BoxPredictor_1/BoxEncodingPredictor/weights", "op": "Const", "attr": {"value": {"tensor": {"dtype": "DT_FLOAT", "tensorShape": {"dim": [{"size": "1"}, {"size": "1"}, {"size": "288"}, {"size": "24"}]}}}, "dtype": {"type": "DT_FLOAT"}}}, {"name": "BoxPredictor_1/BoxEncodingPredictor/biases", "op": "Const", "attr": {"dtype": {"type": "DT_FLOAT"}, "value": {"tensor": {"dtype": "DT_FLOAT", "tensorShape": {"dim": [{"size": "24"}]}}}}}, {"name": "BoxPredictor_1/strided_slice/stack", "op": "Const", "attr": {"value": {"tensor": {"dtype": "DT_INT32", "tensorShape": {"dim": [{"size": "1"}]}}}, "dtype": {"type": "DT_INT32"}}}, {"name": "BoxPredictor_1/strided_slice/stack_1", "op": "Const", "attr": {"value": {"tensor": {"dtype": "DT_INT32", "tensorShape": {"dim": [{"size": "1"}]}}}, "dtype": {"type": "DT_INT32"}}}, {"name": "BoxPredictor_1/strided_slice/stack_2", "op": "Const", "attr": {"dtype": {"type": "DT_INT32"}, "value": {"tensor": {"dtype": "DT_INT32", "tensorShape": {"dim": [{"size": "1"}]}}}}}, {"name": "BoxPredictor_1/Reshape/shape/1", "op": "Const", "attr": {"value": {"tensor": {"dtype": "DT_INT32", "tensorShape": {}}}, "dtype": {"type": "DT_INT32"}}}, {"name": "BoxPredictor_1/Reshape/shape/2", "op": "Const", "attr": {"dtype": {"type": "DT_INT32"}, "value": {"tensor": {"dtype": "DT_INT32", "tensorShape": {}}}}}, {"name": "BoxPredictor_1/Reshape/shape/3", "op": "Const", "attr": {"dtype": {"type": "DT_INT32"}, "value": {"tensor": {"dtype": "DT_INT32", "tensorShape": {}}}}}, {"name": "BoxPredictor_2/BoxEncodingPredictor/weights", "op": "Const", "attr": {"dtype": {"type": "DT_FLOAT"}, "value": {"tensor": {"dtype": "DT_FLOAT", "tensorShape": {"dim": [{"size": "1"}, {"size": "1"}, {"size": "512"}, {"size": "24"}]}}}}}, {"name": "BoxPredictor_2/BoxEncodingPredictor/biases", "op": "Const", "attr": {"dtype": {"type": "DT_FLOAT"}, "value": {"tensor": {"dtype": "DT_FLOAT", "tensorShape": {"dim": [{"size": "24"}]}}}}}, {"name": "BoxPredictor_2/strided_slice/stack", "op": "Const", "attr": {"dtype": {"type": "DT_INT32"}, "value": {"tensor": {"dtype": "DT_INT32", "tensorShape": {"dim": [{"size": "1"}]}}}}}, {"name": "BoxPredictor_2/strided_slice/stack_1", "op": "Const", "attr": {"dtype": {"type": "DT_INT32"}, "value": {"tensor": {"dtype": "DT_INT32", "tensorShape": {"dim": [{"size": "1"}]}}}}}, {"name": "BoxPredictor_2/strided_slice/stack_2", "op": "Const", "attr": {"value": {"tensor": {"dtype": "DT_INT32", "tensorShape": {"dim": [{"size": "1"}]}}}, "dtype": {"type": "DT_INT32"}}}, {"name": "BoxPredictor_2/Reshape/shape/1", "op": "Const", "attr": {"dtype": {"type": "DT_INT32"}, "value": {"tensor": {"dtype": "DT_INT32", "tensorShape": {}}}}}, {"name": "BoxPredictor_2/Reshape/shape/2", "op": "Const", "attr": {"dtype": {"type": "DT_INT32"}, "value": {"tensor": {"dtype": "DT_INT32", "tensorShape": {}}}}}, {"name": "BoxPredictor_2/Reshape/shape/3", "op": "Const", "attr": {"value": {"tensor": {"dtype": "DT_INT32", "tensorShape": {}}}, "dtype": {"type": "DT_INT32"}}}, {"name": "BoxPredictor_3/BoxEncodingPredictor/weights", "op": "Const", "attr": {"dtype": {"type": "DT_FLOAT"}, "value": {"tensor": {"dtype": "DT_FLOAT", "tensorShape": {"dim": [{"size": "1"}, {"size": "1"}, {"size": "256"}, {"size": "24"}]}}}}}, {"name": "BoxPredictor_3/BoxEncodingPredictor/biases", "op": "Const", "attr": {"value": {"tensor": {"dtype": "DT_FLOAT", "tensorShape": {"dim": [{"size": "24"}]}}}, "dtype": {"type": "DT_FLOAT"}}}, {"name": "BoxPredictor_3/strided_slice/stack", "op": "Const", "attr": {"dtype": {"type": "DT_INT32"}, "value": {"tensor": {"dtype": "DT_INT32", "tensorShape": {"dim": [{"size": "1"}]}}}}}, {"name": "BoxPredictor_3/strided_slice/stack_1", "op": "Const", "attr": {"dtype": {"type": "DT_INT32"}, "value": {"tensor": {"dtype": "DT_INT32", "tensorShape": {"dim": [{"size": "1"}]}}}}}, {"name": "BoxPredictor_3/strided_slice/stack_2", "op": "Const", "attr": {"dtype": {"type": "DT_INT32"}, "value": {"tensor": {"dtype": "DT_INT32", "tensorShape": {"dim": [{"size": "1"}]}}}}}, {"name": "BoxPredictor_3/Reshape/shape/1", "op": "Const", "attr": {"dtype": {"type": "DT_INT32"}, "value": {"tensor": {"dtype": "DT_INT32", "tensorShape": {}}}}}, {"name": "BoxPredictor_3/Reshape/shape/2", "op": "Const", "attr": {"value": {"tensor": {"dtype": "DT_INT32", "tensorShape": {}}}, "dtype": {"type": "DT_INT32"}}}, {"name": "BoxPredictor_3/Reshape/shape/3", "op": "Const", "attr": {"value": {"tensor": {"dtype": "DT_INT32", "tensorShape": {}}}, "dtype": {"type": "DT_INT32"}}}, {"name": "BoxPredictor_4/BoxEncodingPredictor/weights", "op": "Const", "attr": {"dtype": {"type": "DT_FLOAT"}, "value": {"tensor": {"dtype": "DT_FLOAT", "tensorShape": {"dim": [{"size": "1"}, {"size": "1"}, {"size": "256"}, {"size": "24"}]}}}}}, {"name": "BoxPredictor_4/BoxEncodingPredictor/biases", "op": "Const", "attr": {"dtype": {"type": "DT_FLOAT"}, "value": {"tensor": {"dtype": "DT_FLOAT", "tensorShape": {"dim": [{"size": "24"}]}}}}}, {"name": "BoxPredictor_4/strided_slice/stack", "op": "Const", "attr": {"dtype": {"type": "DT_INT32"}, "value": {"tensor": {"dtype": "DT_INT32", "tensorShape": {"dim": [{"size": "1"}]}}}}}, {"name": "BoxPredictor_4/strided_slice/stack_1", "op": "Const", "attr": {"dtype": {"type": "DT_INT32"}, "value": {"tensor": {"dtype": "DT_INT32", "tensorShape": {"dim": [{"size": "1"}]}}}}}, {"name": "BoxPredictor_4/strided_slice/stack_2", "op": "Const", "attr": {"value": {"tensor": {"dtype": "DT_INT32", "tensorShape": {"dim": [{"size": "1"}]}}}, "dtype": {"type": "DT_INT32"}}}, {"name": "BoxPredictor_4/Reshape/shape/1", "op": "Const", "attr": {"value": {"tensor": {"dtype": "DT_INT32", "tensorShape": {}}}, "dtype": {"type": "DT_INT32"}}}, {"name": "BoxPredictor_4/Reshape/shape/2", "op": "Const", "attr": {"dtype": {"type": "DT_INT32"}, "value": {"tensor": {"dtype": "DT_INT32", "tensorShape": {}}}}}, {"name": "BoxPredictor_4/Reshape/shape/3", "op": "Const", "attr": {"value": {"tensor": {"dtype": "DT_INT32", "tensorShape": {}}}, "dtype": {"type": "DT_INT32"}}}, {"name": "BoxPredictor_5/BoxEncodingPredictor/weights", "op": "Const", "attr": {"dtype": {"type": "DT_FLOAT"}, "value": {"tensor": {"dtype": "DT_FLOAT", "tensorShape": {"dim": [{"size": "1"}, {"size": "1"}, {"size": "128"}, {"size": "24"}]}}}}}, {"name": "BoxPredictor_5/BoxEncodingPredictor/biases", "op": "Const", "attr": {"value": {"tensor": {"dtype": "DT_FLOAT", "tensorShape": {"dim": [{"size": "24"}]}}}, "dtype": {"type": "DT_FLOAT"}}}, {"name": "BoxPredictor_5/strided_slice/stack", "op": "Const", "attr": {"dtype": {"type": "DT_INT32"}, "value": {"tensor": {"dtype": "DT_INT32", "tensorShape": {"dim": [{"size": "1"}]}}}}}, {"name": "BoxPredictor_5/strided_slice/stack_1", "op": "Const", "attr": {"value": {"tensor": {"dtype": "DT_INT32", "tensorShape": {"dim": [{"size": "1"}]}}}, "dtype": {"type": "DT_INT32"}}}, {"name": "BoxPredictor_5/strided_slice/stack_2", "op": "Const", "attr": {"value": {"tensor": {"dtype": "DT_INT32", "tensorShape": {"dim": [{"size": "1"}]}}}, "dtype": {"type": "DT_INT32"}}}, {"name": "BoxPredictor_5/Reshape/shape/1", "op": "Const", "attr": {"dtype": {"type": "DT_INT32"}, "value": {"tensor": {"dtype": "DT_INT32", "tensorShape": {}}}}}, {"name": "BoxPredictor_5/Reshape/shape/2", "op": "Const", "attr": {"value": {"tensor": {"dtype": "DT_INT32", "tensorShape": {}}}, "dtype": {"type": "DT_INT32"}}}, {"name": "BoxPredictor_5/Reshape/shape/3", "op": "Const", "attr": {"dtype": {"type": "DT_INT32"}, "value": {"tensor": {"dtype": "DT_INT32", "tensorShape": {}}}}}, {"name": "concat/axis", "op": "Const", "attr": {"dtype": {"type": "DT_INT32"}, "value": {"tensor": {"dtype": "DT_INT32", "tensorShape": {}}}}}, {"name": "Postprocessor/strided_slice_1/stack", "op": "Const", "attr": {"value": {"tensor": {"dtype": "DT_INT32", "tensorShape": {"dim": [{"size": "1"}]}}}, "dtype": {"type": "DT_INT32"}}}, {"name": "Postprocessor/strided_slice_1/stack_1", "op": "Const", "attr": {"value": {"tensor": {"dtype": "DT_INT32", "tensorShape": {"dim": [{"size": "1"}]}}}, "dtype": {"type": "DT_INT32"}}}, {"name": "Postprocessor/strided_slice_1/stack_2", "op": "Const", "attr": {"value": {"tensor": {"dtype": "DT_INT32", "tensorShape": {"dim": [{"size": "1"}]}}}, "dtype": {"type": "DT_INT32"}}}, {"name": "Postprocessor/stack/2", "op": "Const", "attr": {"dtype": {"type": "DT_INT32"}, "value": {"tensor": {"dtype": "DT_INT32", "tensorShape": {}}}}}, {"name": "Postprocessor/ExpandDims_1/dim", "op": "Const", "attr": {"value": {"tensor": {"dtype": "DT_INT32", "tensorShape": {}}}, "dtype": {"type": "DT_INT32"}}}, {"name": "BoxPredictor_0/ClassPredictor/weights", "op": "Const", "attr": {"value": {"tensor": {"dtype": "DT_FLOAT", "tensorShape": {"dim": [{"size": "1"}, {"size": "1"}, {"size": "288"}, {"size": "15"}]}}}, "dtype": {"type": "DT_FLOAT"}}}, {"name": "BoxPredictor_0/ClassPredictor/biases", "op": "Const", "attr": {"dtype": {"type": "DT_FLOAT"}, "value": {"tensor": {"dtype": "DT_FLOAT", "tensorShape": {"dim": [{"size": "15"}]}}}}}, {"name": "BoxPredictor_0/strided_slice_1/stack", "op": "Const", "attr": {"dtype": {"type": "DT_INT32"}, "value": {"tensor": {"dtype": "DT_INT32", "tensorShape": {"dim": [{"size": "1"}]}}}}}, {"name": "BoxPredictor_0/strided_slice_1/stack_1", "op": "Const", "attr": {"dtype": {"type": "DT_INT32"}, "value": {"tensor": {"dtype": "DT_INT32", "tensorShape": {"dim": [{"size": "1"}]}}}}}, {"name": "BoxPredictor_0/strided_slice_1/stack_2", "op": "Const", "attr": {"value": {"tensor": {"dtype": "DT_INT32", "tensorShape": {"dim": [{"size": "1"}]}}}, "dtype": {"type": "DT_INT32"}}}, {"name": "BoxPredictor_0/Reshape_1/shape/1", "op": "Const", "attr": {"value": {"tensor": {"dtype": "DT_INT32", "tensorShape": {}}}, "dtype": {"type": "DT_INT32"}}}, {"name": "BoxPredictor_0/Reshape_1/shape/2", "op": "Const", "attr": {"value": {"tensor": {"dtype": "DT_INT32", "tensorShape": {}}}, "dtype": {"type": "DT_INT32"}}}, {"name": "BoxPredictor_1/ClassPredictor/weights", "op": "Const", "attr": {"value": {"tensor": {"dtype": "DT_FLOAT", "tensorShape": {"dim": [{"size": "1"}, {"size": "1"}, {"size": "288"}, {"size": "30"}]}}}, "dtype": {"type": "DT_FLOAT"}}}, {"name": "BoxPredictor_1/ClassPredictor/biases", "op": "Const", "attr": {"dtype": {"type": "DT_FLOAT"}, "value": {"tensor": {"dtype": "DT_FLOAT", "tensorShape": {"dim": [{"size": "30"}]}}}}}, {"name": "BoxPredictor_1/strided_slice_1/stack", "op": "Const", "attr": {"dtype": {"type": "DT_INT32"}, "value": {"tensor": {"dtype": "DT_INT32", "tensorShape": {"dim": [{"size": "1"}]}}}}}, {"name": "BoxPredictor_1/strided_slice_1/stack_1", "op": "Const", "attr": {"value": {"tensor": {"dtype": "DT_INT32", "tensorShape": {"dim": [{"size": "1"}]}}}, "dtype": {"type": "DT_INT32"}}}, {"name": "BoxPredictor_1/strided_slice_1/stack_2", "op": "Const", "attr": {"value": {"tensor": {"dtype": "DT_INT32", "tensorShape": {"dim": [{"size": "1"}]}}}, "dtype": {"type": "DT_INT32"}}}, {"name": "BoxPredictor_1/Reshape_1/shape/1", "op": "Const", "attr": {"value": {"tensor": {"dtype": "DT_INT32", "tensorShape": {}}}, "dtype": {"type": "DT_INT32"}}}, {"name": "BoxPredictor_1/Reshape_1/shape/2", "op": "Const", "attr": {"value": {"tensor": {"dtype": "DT_INT32", "tensorShape": {}}}, "dtype": {"type": "DT_INT32"}}}, {"name": "BoxPredictor_2/ClassPredictor/weights", "op": "Const", "attr": {"value": {"tensor": {"dtype": "DT_FLOAT", "tensorShape": {"dim": [{"size": "1"}, {"size": "1"}, {"size": "512"}, {"size": "30"}]}}}, "dtype": {"type": "DT_FLOAT"}}}, {"name": "BoxPredictor_2/ClassPredictor/biases", "op": "Const", "attr": {"dtype": {"type": "DT_FLOAT"}, "value": {"tensor": {"dtype": "DT_FLOAT", "tensorShape": {"dim": [{"size": "30"}]}}}}}, {"name": "BoxPredictor_2/strided_slice_1/stack", "op": "Const", "attr": {"value": {"tensor": {"dtype": "DT_INT32", "tensorShape": {"dim": [{"size": "1"}]}}}, "dtype": {"type": "DT_INT32"}}}, {"name": "BoxPredictor_2/strided_slice_1/stack_1", "op": "Const", "attr": {"value": {"tensor": {"dtype": "DT_INT32", "tensorShape": {"dim": [{"size": "1"}]}}}, "dtype": {"type": "DT_INT32"}}}, {"name": "BoxPredictor_2/strided_slice_1/stack_2", "op": "Const", "attr": {"value": {"tensor": {"dtype": "DT_INT32", "tensorShape": {"dim": [{"size": "1"}]}}}, "dtype": {"type": "DT_INT32"}}}, {"name": "BoxPredictor_2/Reshape_1/shape/1", "op": "Const", "attr": {"dtype": {"type": "DT_INT32"}, "value": {"tensor": {"dtype": "DT_INT32", "tensorShape": {}}}}}, {"name": "BoxPredictor_2/Reshape_1/shape/2", "op": "Const", "attr": {"dtype": {"type": "DT_INT32"}, "value": {"tensor": {"dtype": "DT_INT32", "tensorShape": {}}}}}, {"name": "BoxPredictor_3/ClassPredictor/weights", "op": "Const", "attr": {"dtype": {"type": "DT_FLOAT"}, "value": {"tensor": {"dtype": "DT_FLOAT", "tensorShape": {"dim": [{"size": "1"}, {"size": "1"}, {"size": "256"}, {"size": "30"}]}}}}}, {"name": "BoxPredictor_3/ClassPredictor/biases", "op": "Const", "attr": {"dtype": {"type": "DT_FLOAT"}, "value": {"tensor": {"dtype": "DT_FLOAT", "tensorShape": {"dim": [{"size": "30"}]}}}}}, {"name": "BoxPredictor_3/strided_slice_1/stack", "op": "Const", "attr": {"dtype": {"type": "DT_INT32"}, "value": {"tensor": {"dtype": "DT_INT32", "tensorShape": {"dim": [{"size": "1"}]}}}}}, {"name": "BoxPredictor_3/strided_slice_1/stack_1", "op": "Const", "attr": {"value": {"tensor": {"dtype": "DT_INT32", "tensorShape": {"dim": [{"size": "1"}]}}}, "dtype": {"type": "DT_INT32"}}}, {"name": "BoxPredictor_3/strided_slice_1/stack_2", "op": "Const", "attr": {"dtype": {"type": "DT_INT32"}, "value": {"tensor": {"dtype": "DT_INT32", "tensorShape": {"dim": [{"size": "1"}]}}}}}, {"name": "BoxPredictor_3/Reshape_1/shape/1", "op": "Const", "attr": {"dtype": {"type": "DT_INT32"}, "value": {"tensor": {"dtype": "DT_INT32", "tensorShape": {}}}}}, {"name": "BoxPredictor_3/Reshape_1/shape/2", "op": "Const", "attr": {"value": {"tensor": {"dtype": "DT_INT32", "tensorShape": {}}}, "dtype": {"type": "DT_INT32"}}}, {"name": "BoxPredictor_4/ClassPredictor/weights", "op": "Const", "attr": {"dtype": {"type": "DT_FLOAT"}, "value": {"tensor": {"dtype": "DT_FLOAT", "tensorShape": {"dim": [{"size": "1"}, {"size": "1"}, {"size": "256"}, {"size": "30"}]}}}}}, {"name": "BoxPredictor_4/ClassPredictor/biases", "op": "Const", "attr": {"dtype": {"type": "DT_FLOAT"}, "value": {"tensor": {"dtype": "DT_FLOAT", "tensorShape": {"dim": [{"size": "30"}]}}}}}, {"name": "BoxPredictor_4/strided_slice_1/stack", "op": "Const", "attr": {"value": {"tensor": {"dtype": "DT_INT32", "tensorShape": {"dim": [{"size": "1"}]}}}, "dtype": {"type": "DT_INT32"}}}, {"name": "BoxPredictor_4/strided_slice_1/stack_1", "op": "Const", "attr": {"value": {"tensor": {"dtype": "DT_INT32", "tensorShape": {"dim": [{"size": "1"}]}}}, "dtype": {"type": "DT_INT32"}}}, {"name": "BoxPredictor_4/strided_slice_1/stack_2", "op": "Const", "attr": {"value": {"tensor": {"dtype": "DT_INT32", "tensorShape": {"dim": [{"size": "1"}]}}}, "dtype": {"type": "DT_INT32"}}}, {"name": "BoxPredictor_4/Reshape_1/shape/1", "op": "Const", "attr": {"value": {"tensor": {"dtype": "DT_INT32", "tensorShape": {}}}, "dtype": {"type": "DT_INT32"}}}, {"name": "BoxPredictor_4/Reshape_1/shape/2", "op": "Const", "attr": {"value": {"tensor": {"dtype": "DT_INT32", "tensorShape": {}}}, "dtype": {"type": "DT_INT32"}}}, {"name": "BoxPredictor_5/ClassPredictor/weights", "op": "Const", "attr": {"value": {"tensor": {"dtype": "DT_FLOAT", "tensorShape": {"dim": [{"size": "1"}, {"size": "1"}, {"size": "128"}, {"size": "30"}]}}}, "dtype": {"type": "DT_FLOAT"}}}, {"name": "BoxPredictor_5/ClassPredictor/biases", "op": "Const", "attr": {"dtype": {"type": "DT_FLOAT"}, "value": {"tensor": {"dtype": "DT_FLOAT", "tensorShape": {"dim": [{"size": "30"}]}}}}}, {"name": "FeatureExtractor/MobilenetV3/Conv_1/hard_swish/mul_1/y", "op": "Const", "attr": {"value": {"tensor": {"dtype": "DT_FLOAT", "tensorShape": {}}}, "dtype": {"type": "DT_FLOAT"}}}, {"name": "FeatureExtractor/MobilenetV3/expanded_conv_10/squeeze_excite/Conv_1/mul/y", "op": "Const", "attr": {"value": {"tensor": {"dtype": "DT_FLOAT", "tensorShape": {}}}, "dtype": {"type": "DT_FLOAT"}}}, {"name": "FeatureExtractor/MobilenetV3/expanded_conv_10/squeeze_excite/Mean/reduction_indices", "op": "Const", "attr": {"dtype": {"type": "DT_INT32"}, "value": {"tensor": {"dtype": "DT_INT32", "tensorShape": {"dim": [{"size": "2"}]}}}}}, {"name": "FeatureExtractor/MobilenetV3/expanded_conv_10/squeeze_excite/Conv/weights", "op": "Const", "attr": {"dtype": {"type": "DT_FLOAT"}, "value": {"tensor": {"dtype": "DT_FLOAT", "tensorShape": {"dim": [{"size": "1"}, {"size": "1"}, {"size": "288"}, {"size": "72"}]}}}}}, {"name": "FeatureExtractor/MobilenetV3/expanded_conv_10/squeeze_excite/Conv/biases", "op": "Const", "attr": {"value": {"tensor": {"dtype": "DT_FLOAT", "tensorShape": {"dim": [{"size": "72"}]}}}, "dtype": {"type": "DT_FLOAT"}}}, {"name": "FeatureExtractor/MobilenetV3/expanded_conv_10/squeeze_excite/Conv_1/weights", "op": "Const", "attr": {"value": {"tensor": {"dtype": "DT_FLOAT", "tensorShape": {"dim": [{"size": "1"}, {"size": "1"}, {"size": "72"}, {"size": "288"}]}}}, "dtype": {"type": "DT_FLOAT"}}}, {"name": "FeatureExtractor/MobilenetV3/expanded_conv_10/squeeze_excite/Conv_1/biases", "op": "Const", "attr": {"value": {"tensor": {"dtype": "DT_FLOAT", "tensorShape": {"dim": [{"size": "288"}]}}}, "dtype": {"type": "DT_FLOAT"}}}, {"name": "FeatureExtractor/MobilenetV3/expanded_conv_10/squeeze_excite/Conv_1/add/y", "op": "Const", "attr": {"dtype": {"type": "DT_FLOAT"}, "value": {"tensor": {"dtype": "DT_FLOAT", "tensorShape": {}}}}}, {"name": "FeatureExtractor/MobilenetV3/expanded_conv_10/depthwise/hard_swish/mul_1/y", "op": "Const", "attr": {"dtype": {"type": "DT_FLOAT"}, "value": {"tensor": {"dtype": "DT_FLOAT", "tensorShape": {}}}}}, {"name": "FeatureExtractor/MobilenetV3/expanded_conv_10/expand/hard_swish/mul_1/y", "op": "Const", "attr": {"value": {"tensor": {"dtype": "DT_FLOAT", "tensorShape": {}}}, "dtype": {"type": "DT_FLOAT"}}}, {"name": "FeatureExtractor/MobilenetV3/expanded_conv_10/expand/hard_swish/add/y", "op": "Const", "attr": {"dtype": {"type": "DT_FLOAT"}, "value": {"tensor": {"dtype": "DT_FLOAT", "tensorShape": {}}}}}, {"name": "FeatureExtractor/MobilenetV3/expanded_conv_10/depthwise/hard_swish/add/y", "op": "Const", "attr": {"dtype": {"type": "DT_FLOAT"}, "value": {"tensor": {"dtype": "DT_FLOAT", "tensorShape": {}}}}}, {"name": "FeatureExtractor/MobilenetV3/expanded_conv_9/squeeze_excite/Conv_1/mul/y", "op": "Const", "attr": {"dtype": {"type": "DT_FLOAT"}, "value": {"tensor": {"dtype": "DT_FLOAT", "tensorShape": {}}}}}, {"name": "FeatureExtractor/MobilenetV3/expanded_conv_9/squeeze_excite/Mean/reduction_indices", "op": "Const", "attr": {"dtype": {"type": "DT_INT32"}, "value": {"tensor": {"dtype": "DT_INT32", "tensorShape": {"dim": [{"size": "2"}]}}}}}, {"name": "FeatureExtractor/MobilenetV3/expanded_conv_9/squeeze_excite/Conv/weights", "op": "Const", "attr": {"value": {"tensor": {"dtype": "DT_FLOAT", "tensorShape": {"dim": [{"size": "1"}, {"size": "1"}, {"size": "288"}, {"size": "72"}]}}}, "dtype": {"type": "DT_FLOAT"}}}, {"name": "FeatureExtractor/MobilenetV3/expanded_conv_9/squeeze_excite/Conv/biases", "op": "Const", "attr": {"dtype": {"type": "DT_FLOAT"}, "value": {"tensor": {"dtype": "DT_FLOAT", "tensorShape": {"dim": [{"size": "72"}]}}}}}, {"name": "FeatureExtractor/MobilenetV3/expanded_conv_9/squeeze_excite/Conv_1/weights", "op": "Const", "attr": {"dtype": {"type": "DT_FLOAT"}, "value": {"tensor": {"dtype": "DT_FLOAT", "tensorShape": {"dim": [{"size": "1"}, {"size": "1"}, {"size": "72"}, {"size": "288"}]}}}}}, {"name": "FeatureExtractor/MobilenetV3/expanded_conv_9/squeeze_excite/Conv_1/biases", "op": "Const", "attr": {"value": {"tensor": {"dtype": "DT_FLOAT", "tensorShape": {"dim": [{"size": "288"}]}}}, "dtype": {"type": "DT_FLOAT"}}}, {"name": "FeatureExtractor/MobilenetV3/expanded_conv_9/squeeze_excite/Conv_1/add/y", "op": "Const", "attr": {"dtype": {"type": "DT_FLOAT"}, "value": {"tensor": {"dtype": "DT_FLOAT", "tensorShape": {}}}}}, {"name": "FeatureExtractor/MobilenetV3/expanded_conv_9/depthwise/hard_swish/mul_1/y", "op": "Const", "attr": {"value": {"tensor": {"dtype": "DT_FLOAT", "tensorShape": {}}}, "dtype": {"type": "DT_FLOAT"}}}, {"name": "FeatureExtractor/MobilenetV3/expanded_conv_9/expand/hard_swish/mul_1/y", "op": "Const", "attr": {"value": {"tensor": {"dtype": "DT_FLOAT", "tensorShape": {}}}, "dtype": {"type": "DT_FLOAT"}}}, {"name": "FeatureExtractor/MobilenetV3/expanded_conv_9/expand/hard_swish/add/y", "op": "Const", "attr": {"value": {"tensor": {"dtype": "DT_FLOAT", "tensorShape": {}}}, "dtype": {"type": "DT_FLOAT"}}}, {"name": "FeatureExtractor/MobilenetV3/expanded_conv_9/depthwise/hard_swish/add/y", "op": "Const", "attr": {"value": {"tensor": {"dtype": "DT_FLOAT", "tensorShape": {}}}, "dtype": {"type": "DT_FLOAT"}}}, {"name": "FeatureExtractor/MobilenetV3/expanded_conv_8/squeeze_excite/Conv_1/mul/y", "op": "Const", "attr": {"dtype": {"type": "DT_FLOAT"}, "value": {"tensor": {"dtype": "DT_FLOAT", "tensorShape": {}}}}}, {"name": "FeatureExtractor/MobilenetV3/expanded_conv_8/squeeze_excite/Mean/reduction_indices", "op": "Const", "attr": {"value": {"tensor": {"dtype": "DT_INT32", "tensorShape": {"dim": [{"size": "2"}]}}}, "dtype": {"type": "DT_INT32"}}}, {"name": "FeatureExtractor/MobilenetV3/expanded_conv_8/squeeze_excite/Conv/weights", "op": "Const", "attr": {"value": {"tensor": {"dtype": "DT_FLOAT", "tensorShape": {"dim": [{"size": "1"}, {"size": "1"}, {"size": "288"}, {"size": "72"}]}}}, "dtype": {"type": "DT_FLOAT"}}}, {"name": "FeatureExtractor/MobilenetV3/expanded_conv_8/squeeze_excite/Conv/biases", "op": "Const", "attr": {"value": {"tensor": {"dtype": "DT_FLOAT", "tensorShape": {"dim": [{"size": "72"}]}}}, "dtype": {"type": "DT_FLOAT"}}}, {"name": "FeatureExtractor/MobilenetV3/expanded_conv_8/squeeze_excite/Conv_1/weights", "op": "Const", "attr": {"value": {"tensor": {"dtype": "DT_FLOAT", "tensorShape": {"dim": [{"size": "1"}, {"size": "1"}, {"size": "72"}, {"size": "288"}]}}}, "dtype": {"type": "DT_FLOAT"}}}, {"name": "FeatureExtractor/MobilenetV3/expanded_conv_8/squeeze_excite/Conv_1/biases", "op": "Const", "attr": {"dtype": {"type": "DT_FLOAT"}, "value": {"tensor": {"dtype": "DT_FLOAT", "tensorShape": {"dim": [{"size": "288"}]}}}}}, {"name": "FeatureExtractor/MobilenetV3/expanded_conv_8/squeeze_excite/Conv_1/add/y", "op": "Const", "attr": {"dtype": {"type": "DT_FLOAT"}, "value": {"tensor": {"dtype": "DT_FLOAT", "tensorShape": {}}}}}, {"name": "FeatureExtractor/MobilenetV3/expanded_conv_8/depthwise/hard_swish/mul_1/y", "op": "Const", "attr": {"dtype": {"type": "DT_FLOAT"}, "value": {"tensor": {"dtype": "DT_FLOAT", "tensorShape": {}}}}}, {"name": "FeatureExtractor/MobilenetV3/expanded_conv_8/expand/hard_swish/mul_1/y", "op": "Const", "attr": {"value": {"tensor": {"dtype": "DT_FLOAT", "tensorShape": {}}}, "dtype": {"type": "DT_FLOAT"}}}, {"name": "FeatureExtractor/MobilenetV3/expanded_conv_7/squeeze_excite/Conv_1/mul/y", "op": "Const", "attr": {"value": {"tensor": {"dtype": "DT_FLOAT", "tensorShape": {}}}, "dtype": {"type": "DT_FLOAT"}}}, {"name": "FeatureExtractor/MobilenetV3/expanded_conv_7/squeeze_excite/Mean/reduction_indices", "op": "Const", "attr": {"value": {"tensor": {"dtype": "DT_INT32", "tensorShape": {"dim": [{"size": "2"}]}}}, "dtype": {"type": "DT_INT32"}}}, {"name": "FeatureExtractor/MobilenetV3/expanded_conv_7/squeeze_excite/Conv/weights", "op": "Const", "attr": {"value": {"tensor": {"dtype": "DT_FLOAT", "tensorShape": {"dim": [{"size": "1"}, {"size": "1"}, {"size": "144"}, {"size": "40"}]}}}, "dtype": {"type": "DT_FLOAT"}}}, {"name": "FeatureExtractor/MobilenetV3/expanded_conv_7/squeeze_excite/Conv/biases", "op": "Const", "attr": {"value": {"tensor": {"dtype": "DT_FLOAT", "tensorShape": {"dim": [{"size": "40"}]}}}, "dtype": {"type": "DT_FLOAT"}}}, {"name": "FeatureExtractor/MobilenetV3/expanded_conv_7/squeeze_excite/Conv_1/weights", "op": "Const", "attr": {"value": {"tensor": {"dtype": "DT_FLOAT", "tensorShape": {"dim": [{"size": "1"}, {"size": "1"}, {"size": "40"}, {"size": "144"}]}}}, "dtype": {"type": "DT_FLOAT"}}}, {"name": "FeatureExtractor/MobilenetV3/expanded_conv_7/squeeze_excite/Conv_1/biases", "op": "Const", "attr": {"value": {"tensor": {"dtype": "DT_FLOAT", "tensorShape": {"dim": [{"size": "144"}]}}}, "dtype": {"type": "DT_FLOAT"}}}, {"name": "FeatureExtractor/MobilenetV3/expanded_conv_7/squeeze_excite/Conv_1/add/y", "op": "Const", "attr": {"value": {"tensor": {"dtype": "DT_FLOAT", "tensorShape": {}}}, "dtype": {"type": "DT_FLOAT"}}}, {"name": "FeatureExtractor/MobilenetV3/expanded_conv_7/depthwise/hard_swish/mul_1/y", "op": "Const", "attr": {"dtype": {"type": "DT_FLOAT"}, "value": {"tensor": {"dtype": "DT_FLOAT", "tensorShape": {}}}}}, {"name": "FeatureExtractor/MobilenetV3/expanded_conv_7/expand/hard_swish/mul_1/y", "op": "Const", "attr": {"value": {"tensor": {"dtype": "DT_FLOAT", "tensorShape": {}}}, "dtype": {"type": "DT_FLOAT"}}}, {"name": "FeatureExtractor/MobilenetV3/expanded_conv_7/expand/hard_swish/add/y", "op": "Const", "attr": {"dtype": {"type": "DT_FLOAT"}, "value": {"tensor": {"dtype": "DT_FLOAT", "tensorShape": {}}}}}, {"name": "FeatureExtractor/MobilenetV3/expanded_conv_7/depthwise/hard_swish/add/y", "op": "Const", "attr": {"value": {"tensor": {"dtype": "DT_FLOAT", "tensorShape": {}}}, "dtype": {"type": "DT_FLOAT"}}}, {"name": "FeatureExtractor/MobilenetV3/expanded_conv_6/squeeze_excite/Conv_1/mul/y", "op": "Const", "attr": {"dtype": {"type": "DT_FLOAT"}, "value": {"tensor": {"dtype": "DT_FLOAT", "tensorShape": {}}}}}, {"name": "FeatureExtractor/MobilenetV3/expanded_conv_6/squeeze_excite/Mean/reduction_indices", "op": "Const", "attr": {"value": {"tensor": {"dtype": "DT_INT32", "tensorShape": {"dim": [{"size": "2"}]}}}, "dtype": {"type": "DT_INT32"}}}, {"name": "FeatureExtractor/MobilenetV3/expanded_conv_6/squeeze_excite/Conv/weights", "op": "Const", "attr": {"dtype": {"type": "DT_FLOAT"}, "value": {"tensor": {"dtype": "DT_FLOAT", "tensorShape": {"dim": [{"size": "1"}, {"size": "1"}, {"size": "120"}, {"size": "32"}]}}}}}, {"name": "FeatureExtractor/MobilenetV3/expanded_conv_6/squeeze_excite/Conv/biases", "op": "Const", "attr": {"value": {"tensor": {"dtype": "DT_FLOAT", "tensorShape": {"dim": [{"size": "32"}]}}}, "dtype": {"type": "DT_FLOAT"}}}, {"name": "FeatureExtractor/MobilenetV3/expanded_conv_6/squeeze_excite/Conv_1/weights", "op": "Const", "attr": {"value": {"tensor": {"dtype": "DT_FLOAT", "tensorShape": {"dim": [{"size": "1"}, {"size": "1"}, {"size": "32"}, {"size": "120"}]}}}, "dtype": {"type": "DT_FLOAT"}}}, {"name": "FeatureExtractor/MobilenetV3/expanded_conv_6/squeeze_excite/Conv_1/biases", "op": "Const", "attr": {"value": {"tensor": {"dtype": "DT_FLOAT", "tensorShape": {"dim": [{"size": "120"}]}}}, "dtype": {"type": "DT_FLOAT"}}}, {"name": "FeatureExtractor/MobilenetV3/expanded_conv_6/squeeze_excite/Conv_1/add/y", "op": "Const", "attr": {"dtype": {"type": "DT_FLOAT"}, "value": {"tensor": {"dtype": "DT_FLOAT", "tensorShape": {}}}}}, {"name": "FeatureExtractor/MobilenetV3/expanded_conv_6/depthwise/hard_swish/mul_1/y", "op": "Const", "attr": {"dtype": {"type": "DT_FLOAT"}, "value": {"tensor": {"dtype": "DT_FLOAT", "tensorShape": {}}}}}, {"name": "FeatureExtractor/MobilenetV3/expanded_conv_6/expand/hard_swish/mul_1/y", "op": "Const", "attr": {"value": {"tensor": {"dtype": "DT_FLOAT", "tensorShape": {}}}, "dtype": {"type": "DT_FLOAT"}}}, {"name": "FeatureExtractor/MobilenetV3/expanded_conv_5/squeeze_excite/Conv_1/mul/y", "op": "Const", "attr": {"value": {"tensor": {"dtype": "DT_FLOAT", "tensorShape": {}}}, "dtype": {"type": "DT_FLOAT"}}}, {"name": "FeatureExtractor/MobilenetV3/expanded_conv_5/squeeze_excite/Mean/reduction_indices", "op": "Const", "attr": {"value": {"tensor": {"dtype": "DT_INT32", "tensorShape": {"dim": [{"size": "2"}]}}}, "dtype": {"type": "DT_INT32"}}}, {"name": "FeatureExtractor/MobilenetV3/expanded_conv_5/squeeze_excite/Conv/weights", "op": "Const", "attr": {"dtype": {"type": "DT_FLOAT"}, "value": {"tensor": {"dtype": "DT_FLOAT", "tensorShape": {"dim": [{"size": "1"}, {"size": "1"}, {"size": "240"}, {"size": "64"}]}}}}}, {"name": "FeatureExtractor/MobilenetV3/expanded_conv_5/squeeze_excite/Conv/biases", "op": "Const", "attr": {"dtype": {"type": "DT_FLOAT"}, "value": {"tensor": {"dtype": "DT_FLOAT", "tensorShape": {"dim": [{"size": "64"}]}}}}}, {"name": "FeatureExtractor/MobilenetV3/expanded_conv_5/squeeze_excite/Conv_1/weights", "op": "Const", "attr": {"dtype": {"type": "DT_FLOAT"}, "value": {"tensor": {"dtype": "DT_FLOAT", "tensorShape": {"dim": [{"size": "1"}, {"size": "1"}, {"size": "64"}, {"size": "240"}]}}}}}, {"name": "FeatureExtractor/MobilenetV3/expanded_conv_5/squeeze_excite/Conv_1/biases", "op": "Const", "attr": {"dtype": {"type": "DT_FLOAT"}, "value": {"tensor": {"dtype": "DT_FLOAT", "tensorShape": {"dim": [{"size": "240"}]}}}}}, {"name": "FeatureExtractor/MobilenetV3/expanded_conv_5/squeeze_excite/Conv_1/add/y", "op": "Const", "attr": {"value": {"tensor": {"dtype": "DT_FLOAT", "tensorShape": {}}}, "dtype": {"type": "DT_FLOAT"}}}, {"name": "FeatureExtractor/MobilenetV3/expanded_conv_5/depthwise/hard_swish/mul_1/y", "op": "Const", "attr": {"value": {"tensor": {"dtype": "DT_FLOAT", "tensorShape": {}}}, "dtype": {"type": "DT_FLOAT"}}}, {"name": "FeatureExtractor/MobilenetV3/expanded_conv_5/expand/hard_swish/mul_1/y", "op": "Const", "attr": {"value": {"tensor": {"dtype": "DT_FLOAT", "tensorShape": {}}}, "dtype": {"type": "DT_FLOAT"}}}, {"name": "FeatureExtractor/MobilenetV3/expanded_conv_5/expand/hard_swish/add/y", "op": "Const", "attr": {"value": {"tensor": {"dtype": "DT_FLOAT", "tensorShape": {}}}, "dtype": {"type": "DT_FLOAT"}}}, {"name": "FeatureExtractor/MobilenetV3/expanded_conv_5/depthwise/hard_swish/add/y", "op": "Const", "attr": {"dtype": {"type": "DT_FLOAT"}, "value": {"tensor": {"dtype": "DT_FLOAT", "tensorShape": {}}}}}, {"name": "FeatureExtractor/MobilenetV3/expanded_conv_4/squeeze_excite/Conv_1/mul/y", "op": "Const", "attr": {"dtype": {"type": "DT_FLOAT"}, "value": {"tensor": {"dtype": "DT_FLOAT", "tensorShape": {}}}}}, {"name": "FeatureExtractor/MobilenetV3/expanded_conv_4/squeeze_excite/Mean/reduction_indices", "op": "Const", "attr": {"dtype": {"type": "DT_INT32"}, "value": {"tensor": {"dtype": "DT_INT32", "tensorShape": {"dim": [{"size": "2"}]}}}}}, {"name": "FeatureExtractor/MobilenetV3/expanded_conv_4/squeeze_excite/Conv/weights", "op": "Const", "attr": {"value": {"tensor": {"dtype": "DT_FLOAT", "tensorShape": {"dim": [{"size": "1"}, {"size": "1"}, {"size": "240"}, {"size": "64"}]}}}, "dtype": {"type": "DT_FLOAT"}}}, {"name": "FeatureExtractor/MobilenetV3/expanded_conv_4/squeeze_excite/Conv/biases", "op": "Const", "attr": {"value": {"tensor": {"dtype": "DT_FLOAT", "tensorShape": {"dim": [{"size": "64"}]}}}, "dtype": {"type": "DT_FLOAT"}}}, {"name": "FeatureExtractor/MobilenetV3/expanded_conv_4/squeeze_excite/Conv_1/weights", "op": "Const", "attr": {"value": {"tensor": {"dtype": "DT_FLOAT", "tensorShape": {"dim": [{"size": "1"}, {"size": "1"}, {"size": "64"}, {"size": "240"}]}}}, "dtype": {"type": "DT_FLOAT"}}}, {"name": "FeatureExtractor/MobilenetV3/expanded_conv_4/squeeze_excite/Conv_1/biases", "op": "Const", "attr": {"dtype": {"type": "DT_FLOAT"}, "value": {"tensor": {"dtype": "DT_FLOAT", "tensorShape": {"dim": [{"size": "240"}]}}}}}, {"name": "FeatureExtractor/MobilenetV3/expanded_conv_4/squeeze_excite/Conv_1/add/y", "op": "Const", "attr": {"value": {"tensor": {"dtype": "DT_FLOAT", "tensorShape": {}}}, "dtype": {"type": "DT_FLOAT"}}}, {"name": "FeatureExtractor/MobilenetV3/expanded_conv_4/depthwise/hard_swish/mul_1/y", "op": "Const", "attr": {"dtype": {"type": "DT_FLOAT"}, "value": {"tensor": {"dtype": "DT_FLOAT", "tensorShape": {}}}}}, {"name": "FeatureExtractor/MobilenetV3/expanded_conv_4/expand/hard_swish/mul_1/y", "op": "Const", "attr": {"value": {"tensor": {"dtype": "DT_FLOAT", "tensorShape": {}}}, "dtype": {"type": "DT_FLOAT"}}}, {"name": "FeatureExtractor/MobilenetV3/expanded_conv_4/expand/hard_swish/add/y", "op": "Const", "attr": {"value": {"tensor": {"dtype": "DT_FLOAT", "tensorShape": {}}}, "dtype": {"type": "DT_FLOAT"}}}, {"name": "FeatureExtractor/MobilenetV3/expanded_conv_4/depthwise/hard_swish/add/y", "op": "Const", "attr": {"dtype": {"type": "DT_FLOAT"}, "value": {"tensor": {"dtype": "DT_FLOAT", "tensorShape": {}}}}}, {"name": "FeatureExtractor/MobilenetV3/expanded_conv_3/squeeze_excite/Conv_1/mul/y", "op": "Const", "attr": {"dtype": {"type": "DT_FLOAT"}, "value": {"tensor": {"dtype": "DT_FLOAT", "tensorShape": {}}}}}, {"name": "FeatureExtractor/MobilenetV3/expanded_conv_3/squeeze_excite/Mean/reduction_indices", "op": "Const", "attr": {"dtype": {"type": "DT_INT32"}, "value": {"tensor": {"dtype": "DT_INT32", "tensorShape": {"dim": [{"size": "2"}]}}}}}, {"name": "FeatureExtractor/MobilenetV3/expanded_conv_3/squeeze_excite/Conv/weights", "op": "Const", "attr": {"dtype": {"type": "DT_FLOAT"}, "value": {"tensor": {"dtype": "DT_FLOAT", "tensorShape": {"dim": [{"size": "1"}, {"size": "1"}, {"size": "96"}, {"size": "24"}]}}}}}, {"name": "FeatureExtractor/MobilenetV3/expanded_conv_3/squeeze_excite/Conv/biases", "op": "Const", "attr": {"dtype": {"type": "DT_FLOAT"}, "value": {"tensor": {"dtype": "DT_FLOAT", "tensorShape": {"dim": [{"size": "24"}]}}}}}, {"name": "FeatureExtractor/MobilenetV3/expanded_conv_3/squeeze_excite/Conv_1/weights", "op": "Const", "attr": {"value": {"tensor": {"dtype": "DT_FLOAT", "tensorShape": {"dim": [{"size": "1"}, {"size": "1"}, {"size": "24"}, {"size": "96"}]}}}, "dtype": {"type": "DT_FLOAT"}}}, {"name": "FeatureExtractor/MobilenetV3/expanded_conv_3/squeeze_excite/Conv_1/biases", "op": "Const", "attr": {"value": {"tensor": {"dtype": "DT_FLOAT", "tensorShape": {"dim": [{"size": "96"}]}}}, "dtype": {"type": "DT_FLOAT"}}}, {"name": "FeatureExtractor/MobilenetV3/expanded_conv_3/squeeze_excite/Conv_1/add/y", "op": "Const", "attr": {"dtype": {"type": "DT_FLOAT"}, "value": {"tensor": {"dtype": "DT_FLOAT", "tensorShape": {}}}}}, {"name": "FeatureExtractor/MobilenetV3/expanded_conv_3/depthwise/hard_swish/mul_1/y", "op": "Const", "attr": {"value": {"tensor": {"dtype": "DT_FLOAT", "tensorShape": {}}}, "dtype": {"type": "DT_FLOAT"}}}, {"name": "FeatureExtractor/MobilenetV3/expanded_conv_3/expand/hard_swish/mul_1/y", "op": "Const", "attr": {"dtype": {"type": "DT_FLOAT"}, "value": {"tensor": {"dtype": "DT_FLOAT", "tensorShape": {}}}}}, {"name": "FeatureExtractor/MobilenetV3/expanded_conv/squeeze_excite/Conv_1/mul/y", "op": "Const", "attr": {"value": {"tensor": {"dtype": "DT_FLOAT", "tensorShape": {}}}, "dtype": {"type": "DT_FLOAT"}}}, {"name": "FeatureExtractor/MobilenetV3/expanded_conv/squeeze_excite/Mean/reduction_indices", "op": "Const", "attr": {"dtype": {"type": "DT_INT32"}, "value": {"tensor": {"dtype": "DT_INT32", "tensorShape": {"dim": [{"size": "2"}]}}}}}, {"name": "FeatureExtractor/MobilenetV3/expanded_conv/squeeze_excite/Conv/weights", "op": "Const", "attr": {"value": {"tensor": {"dtype": "DT_FLOAT", "tensorShape": {"dim": [{"size": "1"}, {"size": "1"}, {"size": "16"}, {"size": "8"}]}}}, "dtype": {"type": "DT_FLOAT"}}}, {"name": "FeatureExtractor/MobilenetV3/expanded_conv/squeeze_excite/Conv/biases", "op": "Const", "attr": {"value": {"tensor": {"dtype": "DT_FLOAT", "tensorShape": {"dim": [{"size": "8"}]}}}, "dtype": {"type": "DT_FLOAT"}}}, {"name": "FeatureExtractor/MobilenetV3/expanded_conv/squeeze_excite/Conv_1/weights", "op": "Const", "attr": {"value": {"tensor": {"dtype": "DT_FLOAT", "tensorShape": {"dim": [{"size": "1"}, {"size": "1"}, {"size": "8"}, {"size": "16"}]}}}, "dtype": {"type": "DT_FLOAT"}}}, {"name": "FeatureExtractor/MobilenetV3/expanded_conv/squeeze_excite/Conv_1/biases", "op": "Const", "attr": {"dtype": {"type": "DT_FLOAT"}, "value": {"tensor": {"dtype": "DT_FLOAT", "tensorShape": {"dim": [{"size": "16"}]}}}}}, {"name": "FeatureExtractor/MobilenetV3/expanded_conv/squeeze_excite/Conv_1/add/y", "op": "Const", "attr": {"dtype": {"type": "DT_FLOAT"}, "value": {"tensor": {"dtype": "DT_FLOAT", "tensorShape": {}}}}}, {"name": "FeatureExtractor/MobilenetV3/Conv/hard_swish/mul_1/y", "op": "Const", "attr": {"value": {"tensor": {"dtype": "DT_FLOAT", "tensorShape": {}}}, "dtype": {"type": "DT_FLOAT"}}}, {"name": "Preprocessor/map/TensorArrayStack/range/start", "op": "Const", "attr": {"value": {"tensor": {"dtype": "DT_INT32", "tensorShape": {}}}, "dtype": {"type": "DT_INT32"}}}, {"name": "Preprocessor/map/TensorArrayStack/range/delta", "op": "Const", "attr": {"dtype": {"type": "DT_INT32"}, "value": {"tensor": {"dtype": "DT_INT32", "tensorShape": {}}}}}, {"name": "Preprocessor/map/TensorArrayUnstack/range/start", "op": "Const", "attr": {"dtype": {"type": "DT_INT32"}, "value": {"tensor": {"dtype": "DT_INT32", "tensorShape": {}}}}}, {"name": "Preprocessor/map/TensorArrayUnstack/strided_slice/stack", "op": "Const", "attr": {"value": {"tensor": {"dtype": "DT_INT32", "tensorShape": {"dim": [{"size": "1"}]}}}, "dtype": {"type": "DT_INT32"}}}, {"name": "Preprocessor/map/TensorArrayUnstack/strided_slice/stack_1", "op": "Const", "attr": {"dtype": {"type": "DT_INT32"}, "value": {"tensor": {"dtype": "DT_INT32", "tensorShape": {"dim": [{"size": "1"}]}}}}}, {"name": "Preprocessor/map/TensorArrayUnstack/strided_slice/stack_2", "op": "Const", "attr": {"value": {"tensor": {"dtype": "DT_INT32", "tensorShape": {"dim": [{"size": "1"}]}}}, "dtype": {"type": "DT_INT32"}}}, {"name": "Preprocessor/map/TensorArrayUnstack/range/delta", "op": "Const", "attr": {"dtype": {"type": "DT_INT32"}, "value": {"tensor": {"dtype": "DT_INT32", "tensorShape": {}}}}}, {"name": "Preprocessor/map/Const", "op": "Const", "attr": {"dtype": {"type": "DT_INT32"}, "value": {"tensor": {"dtype": "DT_INT32", "tensorShape": {}}}}}, {"name": "Preprocessor/map/while/iteration_counter", "op": "Const", "attr": {"dtype": {"type": "DT_INT32"}, "value": {"tensor": {"dtype": "DT_INT32", "tensorShape": {}}}}}, {"name": "Preprocessor/mul/x", "op": "Const", "attr": {"value": {"tensor": {"dtype": "DT_FLOAT", "tensorShape": {}}}, "dtype": {"type": "DT_FLOAT"}}}, {"name": "Preprocessor/sub/y", "op": "Const", "attr": {"value": {"tensor": {"dtype": "DT_FLOAT", "tensorShape": {}}}, "dtype": {"type": "DT_FLOAT"}}}, {"name": "Preprocessor/map/strided_slice/stack", "op": "Const", "attr": {"dtype": {"type": "DT_INT32"}, "value": {"tensor": {"dtype": "DT_INT32", "tensorShape": {"dim": [{"size": "1"}]}}}}}, {"name": "Preprocessor/map/strided_slice/stack_1", "op": "Const", "attr": {"value": {"tensor": {"dtype": "DT_INT32", "tensorShape": {"dim": [{"size": "1"}]}}}, "dtype": {"type": "DT_INT32"}}}, {"name": "Preprocessor/map/strided_slice/stack_2", "op": "Const", "attr": {"dtype": {"type": "DT_INT32"}, "value": {"tensor": {"dtype": "DT_INT32", "tensorShape": {"dim": [{"size": "1"}]}}}}}, {"name": "FeatureExtractor/MobilenetV3/Conv/hard_swish/add/y", "op": "Const", "attr": {"value": {"tensor": {"dtype": "DT_FLOAT", "tensorShape": {}}}, "dtype": {"type": "DT_FLOAT"}}}, {"name": "FeatureExtractor/MobilenetV3/expanded_conv_3/expand/hard_swish/add/y", "op": "Const", "attr": {"value": {"tensor": {"dtype": "DT_FLOAT", "tensorShape": {}}}, "dtype": {"type": "DT_FLOAT"}}}, {"name": "FeatureExtractor/MobilenetV3/expanded_conv_3/depthwise/hard_swish/add/y", "op": "Const", "attr": {"dtype": {"type": "DT_FLOAT"}, "value": {"tensor": {"dtype": "DT_FLOAT", "tensorShape": {}}}}}, {"name": "FeatureExtractor/MobilenetV3/expanded_conv_6/expand/hard_swish/add/y", "op": "Const", "attr": {"value": {"tensor": {"dtype": "DT_FLOAT", "tensorShape": {}}}, "dtype": {"type": "DT_FLOAT"}}}, {"name": "FeatureExtractor/MobilenetV3/expanded_conv_6/depthwise/hard_swish/add/y", "op": "Const", "attr": {"value": {"tensor": {"dtype": "DT_FLOAT", "tensorShape": {}}}, "dtype": {"type": "DT_FLOAT"}}}, {"name": "FeatureExtractor/MobilenetV3/expanded_conv_8/expand/hard_swish/add/y", "op": "Const", "attr": {"dtype": {"type": "DT_FLOAT"}, "value": {"tensor": {"dtype": "DT_FLOAT", "tensorShape": {}}}}}, {"name": "FeatureExtractor/MobilenetV3/expanded_conv_8/depthwise/hard_swish/add/y", "op": "Const", "attr": {"value": {"tensor": {"dtype": "DT_FLOAT", "tensorShape": {}}}, "dtype": {"type": "DT_FLOAT"}}}, {"name": "FeatureExtractor/MobilenetV3/Conv_1/hard_swish/add/y", "op": "Const", "attr": {"dtype": {"type": "DT_FLOAT"}, "value": {"tensor": {"dtype": "DT_FLOAT", "tensorShape": {}}}}}, {"name": "BoxPredictor_5/strided_slice_1/stack", "op": "Const", "attr": {"value": {"tensor": {"dtype": "DT_INT32", "tensorShape": {"dim": [{"size": "1"}]}}}, "dtype": {"type": "DT_INT32"}}}, {"name": "BoxPredictor_5/strided_slice_1/stack_1", "op": "Const", "attr": {"dtype": {"type": "DT_INT32"}, "value": {"tensor": {"dtype": "DT_INT32", "tensorShape": {"dim": [{"size": "1"}]}}}}}, {"name": "BoxPredictor_5/strided_slice_1/stack_2", "op": "Const", "attr": {"value": {"tensor": {"dtype": "DT_INT32", "tensorShape": {"dim": [{"size": "1"}]}}}, "dtype": {"type": "DT_INT32"}}}, {"name": "BoxPredictor_5/Reshape_1/shape/1", "op": "Const", "attr": {"dtype": {"type": "DT_INT32"}, "value": {"tensor": {"dtype": "DT_INT32", "tensorShape": {}}}}}, {"name": "BoxPredictor_5/Reshape_1/shape/2", "op": "Const", "attr": {"value": {"tensor": {"dtype": "DT_INT32", "tensorShape": {}}}, "dtype": {"type": "DT_INT32"}}}, {"name": "concat_1/axis", "op": "Const", "attr": {"value": {"tensor": {"dtype": "DT_INT32", "tensorShape": {}}}, "dtype": {"type": "DT_INT32"}}}, {"name": "Postprocessor/Slice/begin", "op": "Const", "attr": {"value": {"tensor": {"dtype": "DT_INT32", "tensorShape": {"dim": [{"size": "3"}]}}}, "dtype": {"type": "DT_INT32"}}}, {"name": "Postprocessor/Slice/size", "op": "Const", "attr": {"dtype": {"type": "DT_INT32"}, "value": {"tensor": {"dtype": "DT_INT32", "tensorShape": {"dim": [{"size": "3"}]}}}}}, {"name": "image_tensor", "op": "Placeholder", "attr": {"dtype": {"type": "DT_UINT8"}, "shape": {"shape": {"dim": [{"size": "-1"}, {"size": "-1"}, {"size": "-1"}, {"size": "3"}]}}}}, {"name": "FeatureExtractor/MobilenetV3/Conv/Conv2D_weights", "op": "Const", "attr": {"value": {"tensor": {"dtype": "DT_FLOAT", "tensorShape": {"dim": [{"size": "3"}, {"size": "3"}, {"size": "3"}, {"size": "16"}]}}}, "dtype": {"type": "DT_FLOAT"}}}, {"name": "FeatureExtractor/MobilenetV3/Conv/Conv2D_bn_offset", "op": "Const", "attr": {"value": {"tensor": {"dtype": "DT_FLOAT", "tensorShape": {"dim": [{"size": "16"}]}}}, "dtype": {"type": "DT_FLOAT"}}}, {"name": "FeatureExtractor/MobilenetV3/expanded_conv/depthwise/depthwise_weights", "op": "Const", "attr": {"value": {"tensor": {"dtype": "DT_FLOAT", "tensorShape": {"dim": [{"size": "3"}, {"size": "3"}, {"size": "16"}, {"size": "1"}]}}}, "dtype": {"type": "DT_FLOAT"}}}, {"name": "FeatureExtractor/MobilenetV3/expanded_conv/depthwise/depthwise_bn_offset", "op": "Const", "attr": {"value": {"tensor": {"dtype": "DT_FLOAT", "tensorShape": {"dim": [{"size": "16"}]}}}, "dtype": {"type": "DT_FLOAT"}}}, {"name": "FeatureExtractor/MobilenetV3/layer_13_2_Conv2d_5_3x3_s2_128_depthwise/depthwise_weights", "op": "Const", "attr": {"dtype": {"type": "DT_FLOAT"}, "value": {"tensor": {"dtype": "DT_FLOAT", "tensorShape": {"dim": [{"size": "3"}, {"size": "3"}, {"size": "64"}, {"size": "1"}]}}}}}, {"name": "FeatureExtractor/MobilenetV3/layer_13_2_Conv2d_5_3x3_s2_128_depthwise/depthwise_bn_offset", "op": "Const", "attr": {"value": {"tensor": {"dtype": "DT_FLOAT", "tensorShape": {"dim": [{"size": "64"}]}}}, "dtype": {"type": "DT_FLOAT"}}}, {"name": "FeatureExtractor/MobilenetV3/expanded_conv/project/Conv2D_weights", "op": "Const", "attr": {"dtype": {"type": "DT_FLOAT"}, "value": {"tensor": {"dtype": "DT_FLOAT", "tensorShape": {"dim": [{"size": "1"}, {"size": "1"}, {"size": "16"}, {"size": "16"}]}}}}}, {"name": "FeatureExtractor/MobilenetV3/expanded_conv/project/Conv2D_bn_offset", "op": "Const", "attr": {"dtype": {"type": "DT_FLOAT"}, "value": {"tensor": {"dtype": "DT_FLOAT", "tensorShape": {"dim": [{"size": "16"}]}}}}}, {"name": "FeatureExtractor/MobilenetV3/expanded_conv_1/expand/Conv2D_weights", "op": "Const", "attr": {"value": {"tensor": {"dtype": "DT_FLOAT", "tensorShape": {"dim": [{"size": "1"}, {"size": "1"}, {"size": "16"}, {"size": "72"}]}}}, "dtype": {"type": "DT_FLOAT"}}}, {"name": "FeatureExtractor/MobilenetV3/expanded_conv_1/expand/Conv2D_bn_offset", "op": "Const", "attr": {"dtype": {"type": "DT_FLOAT"}, "value": {"tensor": {"dtype": "DT_FLOAT", "tensorShape": {"dim": [{"size": "72"}]}}}}}, {"name": "FeatureExtractor/MobilenetV3/layer_13_2_Conv2d_5_3x3_s2_128/Conv2D_weights", "op": "Const", "attr": {"value": {"tensor": {"dtype": "DT_FLOAT", "tensorShape": {"dim": [{"size": "1"}, {"size": "1"}, {"size": "64"}, {"size": "128"}]}}}, "dtype": {"type": "DT_FLOAT"}}}, {"name": "FeatureExtractor/MobilenetV3/expanded_conv_1/depthwise/depthwise_weights", "op": "Const", "attr": {"dtype": {"type": "DT_FLOAT"}, "value": {"tensor": {"dtype": "DT_FLOAT", "tensorShape": {"dim": [{"size": "3"}, {"size": "3"}, {"size": "72"}, {"size": "1"}]}}}}}, {"name": "FeatureExtractor/MobilenetV3/expanded_conv_1/depthwise/depthwise_bn_offset", "op": "Const", "attr": {"dtype": {"type": "DT_FLOAT"}, "value": {"tensor": {"dtype": "DT_FLOAT", "tensorShape": {"dim": [{"size": "72"}]}}}}}, {"name": "FeatureExtractor/MobilenetV3/expanded_conv_1/project/Conv2D_weights", "op": "Const", "attr": {"value": {"tensor": {"dtype": "DT_FLOAT", "tensorShape": {"dim": [{"size": "1"}, {"size": "1"}, {"size": "72"}, {"size": "24"}]}}}, "dtype": {"type": "DT_FLOAT"}}}, {"name": "FeatureExtractor/MobilenetV3/expanded_conv_1/project/Conv2D_bn_offset", "op": "Const", "attr": {"value": {"tensor": {"dtype": "DT_FLOAT", "tensorShape": {"dim": [{"size": "24"}]}}}, "dtype": {"type": "DT_FLOAT"}}}, {"name": "FeatureExtractor/MobilenetV3/expanded_conv_2/expand/Conv2D_weights", "op": "Const", "attr": {"value": {"tensor": {"dtype": "DT_FLOAT", "tensorShape": {"dim": [{"size": "1"}, {"size": "1"}, {"size": "24"}, {"size": "88"}]}}}, "dtype": {"type": "DT_FLOAT"}}}, {"name": "FeatureExtractor/MobilenetV3/layer_13_2_Conv2d_5_3x3_s2_128/Conv2D_bn_offset", "op": "Const", "attr": {"dtype": {"type": "DT_FLOAT"}, "value": {"tensor": {"dtype": "DT_FLOAT", "tensorShape": {"dim": [{"size": "128"}]}}}}}, {"name": "FeatureExtractor/MobilenetV3/expanded_conv_2/expand/Conv2D_bn_offset", "op": "Const", "attr": {"value": {"tensor": {"dtype": "DT_FLOAT", "tensorShape": {"dim": [{"size": "88"}]}}}, "dtype": {"type": "DT_FLOAT"}}}, {"name": "FeatureExtractor/MobilenetV3/expanded_conv_2/depthwise/depthwise_weights", "op": "Const", "attr": {"value": {"tensor": {"dtype": "DT_FLOAT", "tensorShape": {"dim": [{"size": "3"}, {"size": "3"}, {"size": "88"}, {"size": "1"}]}}}, "dtype": {"type": "DT_FLOAT"}}}, {"name": "FeatureExtractor/MobilenetV3/expanded_conv_2/depthwise/depthwise_bn_offset", "op": "Const", "attr": {"dtype": {"type": "DT_FLOAT"}, "value": {"tensor": {"dtype": "DT_FLOAT", "tensorShape": {"dim": [{"size": "88"}]}}}}}, {"name": "FeatureExtractor/MobilenetV3/expanded_conv_2/project/Conv2D_weights", "op": "Const", "attr": {"dtype": {"type": "DT_FLOAT"}, "value": {"tensor": {"dtype": "DT_FLOAT", "tensorShape": {"dim": [{"size": "1"}, {"size": "1"}, {"size": "88"}, {"size": "24"}]}}}}}, {"name": "FeatureExtractor/MobilenetV3/expanded_conv_2/project/Conv2D_bn_offset", "op": "Const", "attr": {"value": {"tensor": {"dtype": "DT_FLOAT", "tensorShape": {"dim": [{"size": "24"}]}}}, "dtype": {"type": "DT_FLOAT"}}}, {"name": "FeatureExtractor/MobilenetV3/expanded_conv_3/expand/Conv2D_weights", "op": "Const", "attr": {"value": {"tensor": {"dtype": "DT_FLOAT", "tensorShape": {"dim": [{"size": "1"}, {"size": "1"}, {"size": "24"}, {"size": "96"}]}}}, "dtype": {"type": "DT_FLOAT"}}}, {"name": "FeatureExtractor/MobilenetV3/expanded_conv_3/expand/Conv2D_bn_offset", "op": "Const", "attr": {"value": {"tensor": {"dtype": "DT_FLOAT", "tensorShape": {"dim": [{"size": "96"}]}}}, "dtype": {"type": "DT_FLOAT"}}}, {"name": "FeatureExtractor/MobilenetV3/expanded_conv_3/depthwise/depthwise_weights", "op": "Const", "attr": {"dtype": {"type": "DT_FLOAT"}, "value": {"tensor": {"dtype": "DT_FLOAT", "tensorShape": {"dim": [{"size": "5"}, {"size": "5"}, {"size": "96"}, {"size": "1"}]}}}}}, {"name": "FeatureExtractor/MobilenetV3/expanded_conv_3/depthwise/depthwise_bn_offset", "op": "Const", "attr": {"dtype": {"type": "DT_FLOAT"}, "value": {"tensor": {"dtype": "DT_FLOAT", "tensorShape": {"dim": [{"size": "96"}]}}}}}, {"name": "FeatureExtractor/MobilenetV3/expanded_conv_3/project/Conv2D_weights", "op": "Const", "attr": {"dtype": {"type": "DT_FLOAT"}, "value": {"tensor": {"dtype": "DT_FLOAT", "tensorShape": {"dim": [{"size": "1"}, {"size": "1"}, {"size": "96"}, {"size": "40"}]}}}}}, {"name": "FeatureExtractor/MobilenetV3/expanded_conv_3/project/Conv2D_bn_offset", "op": "Const", "attr": {"dtype": {"type": "DT_FLOAT"}, "value": {"tensor": {"dtype": "DT_FLOAT", "tensorShape": {"dim": [{"size": "40"}]}}}}}, {"name": "FeatureExtractor/MobilenetV3/expanded_conv_4/expand/Conv2D_weights", "op": "Const", "attr": {"dtype": {"type": "DT_FLOAT"}, "value": {"tensor": {"dtype": "DT_FLOAT", "tensorShape": {"dim": [{"size": "1"}, {"size": "1"}, {"size": "40"}, {"size": "240"}]}}}}}, {"name": "FeatureExtractor/MobilenetV3/expanded_conv_4/expand/Conv2D_bn_offset", "op": "Const", "attr": {"dtype": {"type": "DT_FLOAT"}, "value": {"tensor": {"dtype": "DT_FLOAT", "tensorShape": {"dim": [{"size": "240"}]}}}}}, {"name": "FeatureExtractor/MobilenetV3/expanded_conv_4/depthwise/depthwise_weights", "op": "Const", "attr": {"dtype": {"type": "DT_FLOAT"}, "value": {"tensor": {"dtype": "DT_FLOAT", "tensorShape": {"dim": [{"size": "5"}, {"size": "5"}, {"size": "240"}, {"size": "1"}]}}}}}, {"name": "FeatureExtractor/MobilenetV3/expanded_conv_4/depthwise/depthwise_bn_offset", "op": "Const", "attr": {"value": {"tensor": {"dtype": "DT_FLOAT", "tensorShape": {"dim": [{"size": "240"}]}}}, "dtype": {"type": "DT_FLOAT"}}}, {"name": "BoxPredictor_5/BoxEncodingPredictor_depthwise/depthwise_weights", "op": "Const", "attr": {"value": {"tensor": {"dtype": "DT_FLOAT", "tensorShape": {"dim": [{"size": "3"}, {"size": "3"}, {"size": "128"}, {"size": "1"}]}}}, "dtype": {"type": "DT_FLOAT"}}}, {"name": "BoxPredictor_5/BoxEncodingPredictor_depthwise/depthwise_bn_offset", "op": "Const", "attr": {"value": {"tensor": {"dtype": "DT_FLOAT", "tensorShape": {"dim": [{"size": "128"}]}}}, "dtype": {"type": "DT_FLOAT"}}}, {"name": "FeatureExtractor/MobilenetV3/expanded_conv_4/project/Conv2D_weights", "op": "Const", "attr": {"value": {"tensor": {"dtype": "DT_FLOAT", "tensorShape": {"dim": [{"size": "1"}, {"size": "1"}, {"size": "240"}, {"size": "40"}]}}}, "dtype": {"type": "DT_FLOAT"}}}, {"name": "FeatureExtractor/MobilenetV3/expanded_conv_4/project/Conv2D_bn_offset", "op": "Const", "attr": {"dtype": {"type": "DT_FLOAT"}, "value": {"tensor": {"dtype": "DT_FLOAT", "tensorShape": {"dim": [{"size": "40"}]}}}}}, {"name": "FeatureExtractor/MobilenetV3/expanded_conv_5/expand/Conv2D_weights", "op": "Const", "attr": {"dtype": {"type": "DT_FLOAT"}, "value": {"tensor": {"dtype": "DT_FLOAT", "tensorShape": {"dim": [{"size": "1"}, {"size": "1"}, {"size": "40"}, {"size": "240"}]}}}}}, {"name": "FeatureExtractor/MobilenetV3/expanded_conv_5/expand/Conv2D_bn_offset", "op": "Const", "attr": {"dtype": {"type": "DT_FLOAT"}, "value": {"tensor": {"dtype": "DT_FLOAT", "tensorShape": {"dim": [{"size": "240"}]}}}}}, {"name": "FeatureExtractor/MobilenetV3/expanded_conv_5/depthwise/depthwise_weights", "op": "Const", "attr": {"value": {"tensor": {"dtype": "DT_FLOAT", "tensorShape": {"dim": [{"size": "5"}, {"size": "5"}, {"size": "240"}, {"size": "1"}]}}}, "dtype": {"type": "DT_FLOAT"}}}, {"name": "FeatureExtractor/MobilenetV3/expanded_conv_5/depthwise/depthwise_bn_offset", "op": "Const", "attr": {"value": {"tensor": {"dtype": "DT_FLOAT", "tensorShape": {"dim": [{"size": "240"}]}}}, "dtype": {"type": "DT_FLOAT"}}}, {"name": "FeatureExtractor/MobilenetV3/expanded_conv_5/project/Conv2D_weights", "op": "Const", "attr": {"value": {"tensor": {"dtype": "DT_FLOAT", "tensorShape": {"dim": [{"size": "1"}, {"size": "1"}, {"size": "240"}, {"size": "40"}]}}}, "dtype": {"type": "DT_FLOAT"}}}, {"name": "FeatureExtractor/MobilenetV3/expanded_conv_5/project/Conv2D_bn_offset", "op": "Const", "attr": {"dtype": {"type": "DT_FLOAT"}, "value": {"tensor": {"dtype": "DT_FLOAT", "tensorShape": {"dim": [{"size": "40"}]}}}}}, {"name": "FeatureExtractor/MobilenetV3/expanded_conv_6/expand/Conv2D_weights", "op": "Const", "attr": {"value": {"tensor": {"dtype": "DT_FLOAT", "tensorShape": {"dim": [{"size": "1"}, {"size": "1"}, {"size": "40"}, {"size": "120"}]}}}, "dtype": {"type": "DT_FLOAT"}}}, {"name": "FeatureExtractor/MobilenetV3/expanded_conv_6/expand/Conv2D_bn_offset", "op": "Const", "attr": {"value": {"tensor": {"dtype": "DT_FLOAT", "tensorShape": {"dim": [{"size": "120"}]}}}, "dtype": {"type": "DT_FLOAT"}}}, {"name": "FeatureExtractor/MobilenetV3/expanded_conv_6/depthwise/depthwise_weights", "op": "Const", "attr": {"dtype": {"type": "DT_FLOAT"}, "value": {"tensor": {"dtype": "DT_FLOAT", "tensorShape": {"dim": [{"size": "5"}, {"size": "5"}, {"size": "120"}, {"size": "1"}]}}}}}, {"name": "FeatureExtractor/MobilenetV3/expanded_conv_6/depthwise/depthwise_bn_offset", "op": "Const", "attr": {"dtype": {"type": "DT_FLOAT"}, "value": {"tensor": {"dtype": "DT_FLOAT", "tensorShape": {"dim": [{"size": "120"}]}}}}}, {"name": "FeatureExtractor/MobilenetV3/expanded_conv_6/project/Conv2D_weights", "op": "Const", "attr": {"dtype": {"type": "DT_FLOAT"}, "value": {"tensor": {"dtype": "DT_FLOAT", "tensorShape": {"dim": [{"size": "1"}, {"size": "1"}, {"size": "120"}, {"size": "48"}]}}}}}, {"name": "FeatureExtractor/MobilenetV3/expanded_conv_6/project/Conv2D_bn_offset", "op": "Const", "attr": {"dtype": {"type": "DT_FLOAT"}, "value": {"tensor": {"dtype": "DT_FLOAT", "tensorShape": {"dim": [{"size": "48"}]}}}}}, {"name": "FeatureExtractor/MobilenetV3/expanded_conv_7/expand/Conv2D_weights", "op": "Const", "attr": {"value": {"tensor": {"dtype": "DT_FLOAT", "tensorShape": {"dim": [{"size": "1"}, {"size": "1"}, {"size": "48"}, {"size": "144"}]}}}, "dtype": {"type": "DT_FLOAT"}}}, {"name": "FeatureExtractor/MobilenetV3/expanded_conv_7/expand/Conv2D_bn_offset", "op": "Const", "attr": {"value": {"tensor": {"dtype": "DT_FLOAT", "tensorShape": {"dim": [{"size": "144"}]}}}, "dtype": {"type": "DT_FLOAT"}}}, {"name": "FeatureExtractor/MobilenetV3/expanded_conv_7/depthwise/depthwise_weights", "op": "Const", "attr": {"value": {"tensor": {"dtype": "DT_FLOAT", "tensorShape": {"dim": [{"size": "5"}, {"size": "5"}, {"size": "144"}, {"size": "1"}]}}}, "dtype": {"type": "DT_FLOAT"}}}, {"name": "FeatureExtractor/MobilenetV3/expanded_conv_7/depthwise/depthwise_bn_offset", "op": "Const", "attr": {"value": {"tensor": {"dtype": "DT_FLOAT", "tensorShape": {"dim": [{"size": "144"}]}}}, "dtype": {"type": "DT_FLOAT"}}}, {"name": "FeatureExtractor/MobilenetV3/expanded_conv_7/project/Conv2D_weights", "op": "Const", "attr": {"value": {"tensor": {"dtype": "DT_FLOAT", "tensorShape": {"dim": [{"size": "1"}, {"size": "1"}, {"size": "144"}, {"size": "48"}]}}}, "dtype": {"type": "DT_FLOAT"}}}, {"name": "FeatureExtractor/MobilenetV3/expanded_conv_7/project/Conv2D_bn_offset", "op": "Const", "attr": {"value": {"tensor": {"dtype": "DT_FLOAT", "tensorShape": {"dim": [{"size": "48"}]}}}, "dtype": {"type": "DT_FLOAT"}}}, {"name": "FeatureExtractor/MobilenetV3/expanded_conv_8/expand/Conv2D_weights", "op": "Const", "attr": {"value": {"tensor": {"dtype": "DT_FLOAT", "tensorShape": {"dim": [{"size": "1"}, {"size": "1"}, {"size": "48"}, {"size": "288"}]}}}, "dtype": {"type": "DT_FLOAT"}}}, {"name": "FeatureExtractor/MobilenetV3/expanded_conv_8/expand/Conv2D_bn_offset", "op": "Const", "attr": {"value": {"tensor": {"dtype": "DT_FLOAT", "tensorShape": {"dim": [{"size": "288"}]}}}, "dtype": {"type": "DT_FLOAT"}}}, {"name": "BoxPredictor_0/BoxEncodingPredictor_depthwise/depthwise_weights", "op": "Const", "attr": {"dtype": {"type": "DT_FLOAT"}, "value": {"tensor": {"dtype": "DT_FLOAT", "tensorShape": {"dim": [{"size": "3"}, {"size": "3"}, {"size": "288"}, {"size": "1"}]}}}}}, {"name": "BoxPredictor_0/BoxEncodingPredictor_depthwise/depthwise_bn_offset", "op": "Const", "attr": {"value": {"tensor": {"dtype": "DT_FLOAT", "tensorShape": {"dim": [{"size": "288"}]}}}, "dtype": {"type": "DT_FLOAT"}}}, {"name": "BoxPredictor_0/ClassPredictor_depthwise/depthwise_weights", "op": "Const", "attr": {"dtype": {"type": "DT_FLOAT"}, "value": {"tensor": {"dtype": "DT_FLOAT", "tensorShape": {"dim": [{"size": "3"}, {"size": "3"}, {"size": "288"}, {"size": "1"}]}}}}}, {"name": "BoxPredictor_0/ClassPredictor_depthwise/depthwise_bn_offset", "op": "Const", "attr": {"dtype": {"type": "DT_FLOAT"}, "value": {"tensor": {"dtype": "DT_FLOAT", "tensorShape": {"dim": [{"size": "288"}]}}}}}, {"name": "FeatureExtractor/MobilenetV3/expanded_conv_8/depthwise/depthwise_weights", "op": "Const", "attr": {"value": {"tensor": {"dtype": "DT_FLOAT", "tensorShape": {"dim": [{"size": "5"}, {"size": "5"}, {"size": "288"}, {"size": "1"}]}}}, "dtype": {"type": "DT_FLOAT"}}}, {"name": "FeatureExtractor/MobilenetV3/expanded_conv_8/depthwise/depthwise_bn_offset", "op": "Const", "attr": {"value": {"tensor": {"dtype": "DT_FLOAT", "tensorShape": {"dim": [{"size": "288"}]}}}, "dtype": {"type": "DT_FLOAT"}}}, {"name": "FeatureExtractor/MobilenetV3/expanded_conv_8/project/Conv2D_weights", "op": "Const", "attr": {"dtype": {"type": "DT_FLOAT"}, "value": {"tensor": {"dtype": "DT_FLOAT", "tensorShape": {"dim": [{"size": "1"}, {"size": "1"}, {"size": "288"}, {"size": "48"}]}}}}}, {"name": "FeatureExtractor/MobilenetV3/expanded_conv_8/project/Conv2D_bn_offset", "op": "Const", "attr": {"dtype": {"type": "DT_FLOAT"}, "value": {"tensor": {"dtype": "DT_FLOAT", "tensorShape": {"dim": [{"size": "48"}]}}}}}, {"name": "FeatureExtractor/MobilenetV3/expanded_conv_9/expand/Conv2D_weights", "op": "Const", "attr": {"dtype": {"type": "DT_FLOAT"}, "value": {"tensor": {"dtype": "DT_FLOAT", "tensorShape": {"dim": [{"size": "1"}, {"size": "1"}, {"size": "48"}, {"size": "288"}]}}}}}, {"name": "FeatureExtractor/MobilenetV3/expanded_conv_9/expand/Conv2D_bn_offset", "op": "Const", "attr": {"dtype": {"type": "DT_FLOAT"}, "value": {"tensor": {"dtype": "DT_FLOAT", "tensorShape": {"dim": [{"size": "288"}]}}}}}, {"name": "FeatureExtractor/MobilenetV3/expanded_conv_9/depthwise/depthwise_weights", "op": "Const", "attr": {"dtype": {"type": "DT_FLOAT"}, "value": {"tensor": {"dtype": "DT_FLOAT", "tensorShape": {"dim": [{"size": "5"}, {"size": "5"}, {"size": "288"}, {"size": "1"}]}}}}}, {"name": "FeatureExtractor/MobilenetV3/expanded_conv_9/depthwise/depthwise_bn_offset", "op": "Const", "attr": {"value": {"tensor": {"dtype": "DT_FLOAT", "tensorShape": {"dim": [{"size": "288"}]}}}, "dtype": {"type": "DT_FLOAT"}}}, {"name": "FeatureExtractor/MobilenetV3/expanded_conv_9/project/Conv2D_weights", "op": "Const", "attr": {"dtype": {"type": "DT_FLOAT"}, "value": {"tensor": {"dtype": "DT_FLOAT", "tensorShape": {"dim": [{"size": "1"}, {"size": "1"}, {"size": "288"}, {"size": "48"}]}}}}}, {"name": "FeatureExtractor/MobilenetV3/expanded_conv_9/project/Conv2D_bn_offset", "op": "Const", "attr": {"value": {"tensor": {"dtype": "DT_FLOAT", "tensorShape": {"dim": [{"size": "48"}]}}}, "dtype": {"type": "DT_FLOAT"}}}, {"name": "FeatureExtractor/MobilenetV3/expanded_conv_10/expand/Conv2D_weights", "op": "Const", "attr": {"value": {"tensor": {"dtype": "DT_FLOAT", "tensorShape": {"dim": [{"size": "1"}, {"size": "1"}, {"size": "48"}, {"size": "288"}]}}}, "dtype": {"type": "DT_FLOAT"}}}, {"name": "FeatureExtractor/MobilenetV3/expanded_conv_10/expand/Conv2D_bn_offset", "op": "Const", "attr": {"dtype": {"type": "DT_FLOAT"}, "value": {"tensor": {"dtype": "DT_FLOAT", "tensorShape": {"dim": [{"size": "288"}]}}}}}, {"name": "FeatureExtractor/MobilenetV3/expanded_conv_10/depthwise/depthwise_weights", "op": "Const", "attr": {"dtype": {"type": "DT_FLOAT"}, "value": {"tensor": {"dtype": "DT_FLOAT", "tensorShape": {"dim": [{"size": "5"}, {"size": "5"}, {"size": "288"}, {"size": "1"}]}}}}}, {"name": "FeatureExtractor/MobilenetV3/expanded_conv_10/depthwise/depthwise_bn_offset", "op": "Const", "attr": {"dtype": {"type": "DT_FLOAT"}, "value": {"tensor": {"dtype": "DT_FLOAT", "tensorShape": {"dim": [{"size": "288"}]}}}}}, {"name": "FeatureExtractor/MobilenetV3/expanded_conv_10/project/Conv2D_weights", "op": "Const", "attr": {"dtype": {"type": "DT_FLOAT"}, "value": {"tensor": {"dtype": "DT_FLOAT", "tensorShape": {"dim": [{"size": "1"}, {"size": "1"}, {"size": "288"}, {"size": "48"}]}}}}}, {"name": "FeatureExtractor/MobilenetV3/expanded_conv_10/project/Conv2D_bn_offset", "op": "Const", "attr": {"value": {"tensor": {"dtype": "DT_FLOAT", "tensorShape": {"dim": [{"size": "48"}]}}}, "dtype": {"type": "DT_FLOAT"}}}, {"name": "FeatureExtractor/MobilenetV3/Conv_1/Conv2D_weights", "op": "Const", "attr": {"dtype": {"type": "DT_FLOAT"}, "value": {"tensor": {"dtype": "DT_FLOAT", "tensorShape": {"dim": [{"size": "1"}, {"size": "1"}, {"size": "48"}, {"size": "288"}]}}}}}, {"name": "FeatureExtractor/MobilenetV3/Conv_1/Conv2D_bn_offset", "op": "Const", "attr": {"value": {"tensor": {"dtype": "DT_FLOAT", "tensorShape": {"dim": [{"size": "288"}]}}}, "dtype": {"type": "DT_FLOAT"}}}, {"name": "BoxPredictor_1/BoxEncodingPredictor_depthwise/depthwise_weights", "op": "Const", "attr": {"dtype": {"type": "DT_FLOAT"}, "value": {"tensor": {"dtype": "DT_FLOAT", "tensorShape": {"dim": [{"size": "3"}, {"size": "3"}, {"size": "288"}, {"size": "1"}]}}}}}, {"name": "BoxPredictor_1/BoxEncodingPredictor_depthwise/depthwise_bn_offset", "op": "Const", "attr": {"value": {"tensor": {"dtype": "DT_FLOAT", "tensorShape": {"dim": [{"size": "288"}]}}}, "dtype": {"type": "DT_FLOAT"}}}, {"name": "BoxPredictor_1/ClassPredictor_depthwise/depthwise_weights", "op": "Const", "attr": {"value": {"tensor": {"dtype": "DT_FLOAT", "tensorShape": {"dim": [{"size": "3"}, {"size": "3"}, {"size": "288"}, {"size": "1"}]}}}, "dtype": {"type": "DT_FLOAT"}}}, {"name": "BoxPredictor_1/ClassPredictor_depthwise/depthwise_bn_offset", "op": "Const", "attr": {"dtype": {"type": "DT_FLOAT"}, "value": {"tensor": {"dtype": "DT_FLOAT", "tensorShape": {"dim": [{"size": "288"}]}}}}}, {"name": "FeatureExtractor/MobilenetV3/layer_13_1_Conv2d_2_1x1_256/Conv2D_weights", "op": "Const", "attr": {"dtype": {"type": "DT_FLOAT"}, "value": {"tensor": {"dtype": "DT_FLOAT", "tensorShape": {"dim": [{"size": "1"}, {"size": "1"}, {"size": "288"}, {"size": "256"}]}}}}}, {"name": "FeatureExtractor/MobilenetV3/layer_13_1_Conv2d_2_1x1_256/Conv2D_bn_offset", "op": "Const", "attr": {"dtype": {"type": "DT_FLOAT"}, "value": {"tensor": {"dtype": "DT_FLOAT", "tensorShape": {"dim": [{"size": "256"}]}}}}}, {"name": "FeatureExtractor/MobilenetV3/layer_13_2_Conv2d_2_3x3_s2_512_depthwise/depthwise_weights", "op": "Const", "attr": {"dtype": {"type": "DT_FLOAT"}, "value": {"tensor": {"dtype": "DT_FLOAT", "tensorShape": {"dim": [{"size": "3"}, {"size": "3"}, {"size": "256"}, {"size": "1"}]}}}}}, {"name": "FeatureExtractor/MobilenetV3/layer_13_2_Conv2d_2_3x3_s2_512_depthwise/depthwise_bn_offset", "op": "Const", "attr": {"dtype": {"type": "DT_FLOAT"}, "value": {"tensor": {"dtype": "DT_FLOAT", "tensorShape": {"dim": [{"size": "256"}]}}}}}, {"name": "FeatureExtractor/MobilenetV3/layer_13_2_Conv2d_2_3x3_s2_512/Conv2D_weights", "op": "Const", "attr": {"value": {"tensor": {"dtype": "DT_FLOAT", "tensorShape": {"dim": [{"size": "1"}, {"size": "1"}, {"size": "256"}, {"size": "512"}]}}}, "dtype": {"type": "DT_FLOAT"}}}, {"name": "FeatureExtractor/MobilenetV3/layer_13_2_Conv2d_2_3x3_s2_512/Conv2D_bn_offset", "op": "Const", "attr": {"value": {"tensor": {"dtype": "DT_FLOAT", "tensorShape": {"dim": [{"size": "512"}]}}}, "dtype": {"type": "DT_FLOAT"}}}, {"name": "BoxPredictor_2/BoxEncodingPredictor_depthwise/depthwise_weights", "op": "Const", "attr": {"dtype": {"type": "DT_FLOAT"}, "value": {"tensor": {"dtype": "DT_FLOAT", "tensorShape": {"dim": [{"size": "3"}, {"size": "3"}, {"size": "512"}, {"size": "1"}]}}}}}, {"name": "BoxPredictor_2/BoxEncodingPredictor_depthwise/depthwise_bn_offset", "op": "Const", "attr": {"dtype": {"type": "DT_FLOAT"}, "value": {"tensor": {"dtype": "DT_FLOAT", "tensorShape": {"dim": [{"size": "512"}]}}}}}, {"name": "BoxPredictor_2/ClassPredictor_depthwise/depthwise_weights", "op": "Const", "attr": {"dtype": {"type": "DT_FLOAT"}, "value": {"tensor": {"dtype": "DT_FLOAT", "tensorShape": {"dim": [{"size": "3"}, {"size": "3"}, {"size": "512"}, {"size": "1"}]}}}}}, {"name": "BoxPredictor_2/ClassPredictor_depthwise/depthwise_bn_offset", "op": "Const", "attr": {"dtype": {"type": "DT_FLOAT"}, "value": {"tensor": {"dtype": "DT_FLOAT", "tensorShape": {"dim": [{"size": "512"}]}}}}}, {"name": "FeatureExtractor/MobilenetV3/layer_13_1_Conv2d_3_1x1_128/Conv2D_weights", "op": "Const", "attr": {"dtype": {"type": "DT_FLOAT"}, "value": {"tensor": {"dtype": "DT_FLOAT", "tensorShape": {"dim": [{"size": "1"}, {"size": "1"}, {"size": "512"}, {"size": "128"}]}}}}}, {"name": "FeatureExtractor/MobilenetV3/layer_13_1_Conv2d_3_1x1_128/Conv2D_bn_offset", "op": "Const", "attr": {"value": {"tensor": {"dtype": "DT_FLOAT", "tensorShape": {"dim": [{"size": "128"}]}}}, "dtype": {"type": "DT_FLOAT"}}}, {"name": "FeatureExtractor/MobilenetV3/layer_13_2_Conv2d_3_3x3_s2_256_depthwise/depthwise_weights", "op": "Const", "attr": {"value": {"tensor": {"dtype": "DT_FLOAT", "tensorShape": {"dim": [{"size": "3"}, {"size": "3"}, {"size": "128"}, {"size": "1"}]}}}, "dtype": {"type": "DT_FLOAT"}}}, {"name": "FeatureExtractor/MobilenetV3/layer_13_2_Conv2d_3_3x3_s2_256_depthwise/depthwise_bn_offset", "op": "Const", "attr": {"dtype": {"type": "DT_FLOAT"}, "value": {"tensor": {"dtype": "DT_FLOAT", "tensorShape": {"dim": [{"size": "128"}]}}}}}, {"name": "FeatureExtractor/MobilenetV3/layer_13_2_Conv2d_3_3x3_s2_256/Conv2D_weights", "op": "Const", "attr": {"dtype": {"type": "DT_FLOAT"}, "value": {"tensor": {"dtype": "DT_FLOAT", "tensorShape": {"dim": [{"size": "1"}, {"size": "1"}, {"size": "128"}, {"size": "256"}]}}}}}, {"name": "FeatureExtractor/MobilenetV3/layer_13_2_Conv2d_3_3x3_s2_256/Conv2D_bn_offset", "op": "Const", "attr": {"value": {"tensor": {"dtype": "DT_FLOAT", "tensorShape": {"dim": [{"size": "256"}]}}}, "dtype": {"type": "DT_FLOAT"}}}, {"name": "BoxPredictor_3/BoxEncodingPredictor_depthwise/depthwise_weights", "op": "Const", "attr": {"dtype": {"type": "DT_FLOAT"}, "value": {"tensor": {"dtype": "DT_FLOAT", "tensorShape": {"dim": [{"size": "3"}, {"size": "3"}, {"size": "256"}, {"size": "1"}]}}}}}, {"name": "BoxPredictor_3/BoxEncodingPredictor_depthwise/depthwise_bn_offset", "op": "Const", "attr": {"value": {"tensor": {"dtype": "DT_FLOAT", "tensorShape": {"dim": [{"size": "256"}]}}}, "dtype": {"type": "DT_FLOAT"}}}, {"name": "BoxPredictor_3/ClassPredictor_depthwise/depthwise_weights", "op": "Const", "attr": {"dtype": {"type": "DT_FLOAT"}, "value": {"tensor": {"dtype": "DT_FLOAT", "tensorShape": {"dim": [{"size": "3"}, {"size": "3"}, {"size": "256"}, {"size": "1"}]}}}}}, {"name": "BoxPredictor_3/ClassPredictor_depthwise/depthwise_bn_offset", "op": "Const", "attr": {"dtype": {"type": "DT_FLOAT"}, "value": {"tensor": {"dtype": "DT_FLOAT", "tensorShape": {"dim": [{"size": "256"}]}}}}}, {"name": "FeatureExtractor/MobilenetV3/layer_13_1_Conv2d_4_1x1_128/Conv2D_weights", "op": "Const", "attr": {"dtype": {"type": "DT_FLOAT"}, "value": {"tensor": {"dtype": "DT_FLOAT", "tensorShape": {"dim": [{"size": "1"}, {"size": "1"}, {"size": "256"}, {"size": "128"}]}}}}}, {"name": "FeatureExtractor/MobilenetV3/layer_13_1_Conv2d_4_1x1_128/Conv2D_bn_offset", "op": "Const", "attr": {"dtype": {"type": "DT_FLOAT"}, "value": {"tensor": {"dtype": "DT_FLOAT", "tensorShape": {"dim": [{"size": "128"}]}}}}}, {"name": "BoxPredictor_5/ClassPredictor_depthwise/depthwise_weights", "op": "Const", "attr": {"value": {"tensor": {"dtype": "DT_FLOAT", "tensorShape": {"dim": [{"size": "3"}, {"size": "3"}, {"size": "128"}, {"size": "1"}]}}}, "dtype": {"type": "DT_FLOAT"}}}, {"name": "FeatureExtractor/MobilenetV3/layer_13_2_Conv2d_4_3x3_s2_256_depthwise/depthwise_weights", "op": "Const", "attr": {"value": {"tensor": {"dtype": "DT_FLOAT", "tensorShape": {"dim": [{"size": "3"}, {"size": "3"}, {"size": "128"}, {"size": "1"}]}}}, "dtype": {"type": "DT_FLOAT"}}}, {"name": "FeatureExtractor/MobilenetV3/layer_13_2_Conv2d_4_3x3_s2_256_depthwise/depthwise_bn_offset", "op": "Const", "attr": {"value": {"tensor": {"dtype": "DT_FLOAT", "tensorShape": {"dim": [{"size": "128"}]}}}, "dtype": {"type": "DT_FLOAT"}}}, {"name": "FeatureExtractor/MobilenetV3/layer_13_2_Conv2d_4_3x3_s2_256/Conv2D_weights", "op": "Const", "attr": {"value": {"tensor": {"dtype": "DT_FLOAT", "tensorShape": {"dim": [{"size": "1"}, {"size": "1"}, {"size": "128"}, {"size": "256"}]}}}, "dtype": {"type": "DT_FLOAT"}}}, {"name": "FeatureExtractor/MobilenetV3/layer_13_2_Conv2d_4_3x3_s2_256/Conv2D_bn_offset", "op": "Const", "attr": {"value": {"tensor": {"dtype": "DT_FLOAT", "tensorShape": {"dim": [{"size": "256"}]}}}, "dtype": {"type": "DT_FLOAT"}}}, {"name": "BoxPredictor_5/ClassPredictor_depthwise/depthwise_bn_offset", "op": "Const", "attr": {"dtype": {"type": "DT_FLOAT"}, "value": {"tensor": {"dtype": "DT_FLOAT", "tensorShape": {"dim": [{"size": "128"}]}}}}}, {"name": "BoxPredictor_4/BoxEncodingPredictor_depthwise/depthwise_weights", "op": "Const", "attr": {"dtype": {"type": "DT_FLOAT"}, "value": {"tensor": {"dtype": "DT_FLOAT", "tensorShape": {"dim": [{"size": "3"}, {"size": "3"}, {"size": "256"}, {"size": "1"}]}}}}}, {"name": "BoxPredictor_4/BoxEncodingPredictor_depthwise/depthwise_bn_offset", "op": "Const", "attr": {"dtype": {"type": "DT_FLOAT"}, "value": {"tensor": {"dtype": "DT_FLOAT", "tensorShape": {"dim": [{"size": "256"}]}}}}}, {"name": "BoxPredictor_4/ClassPredictor_depthwise/depthwise_weights", "op": "Const", "attr": {"dtype": {"type": "DT_FLOAT"}, "value": {"tensor": {"dtype": "DT_FLOAT", "tensorShape": {"dim": [{"size": "3"}, {"size": "3"}, {"size": "256"}, {"size": "1"}]}}}}}, {"name": "BoxPredictor_4/ClassPredictor_depthwise/depthwise_bn_offset", "op": "Const", "attr": {"dtype": {"type": "DT_FLOAT"}, "value": {"tensor": {"dtype": "DT_FLOAT", "tensorShape": {"dim": [{"size": "256"}]}}}}}, {"name": "FeatureExtractor/MobilenetV3/layer_13_1_Conv2d_5_1x1_64/Conv2D_weights", "op": "Const", "attr": {"value": {"tensor": {"dtype": "DT_FLOAT", "tensorShape": {"dim": [{"size": "1"}, {"size": "1"}, {"size": "256"}, {"size": "64"}]}}}, "dtype": {"type": "DT_FLOAT"}}}, {"name": "FeatureExtractor/MobilenetV3/layer_13_1_Conv2d_5_1x1_64/Conv2D_bn_offset", "op": "Const", "attr": {"value": {"tensor": {"dtype": "DT_FLOAT", "tensorShape": {"dim": [{"size": "64"}]}}}, "dtype": {"type": "DT_FLOAT"}}}, {"name": "Preprocessor/map/while/Enter_1", "op": "Enter", "input": ["Preprocessor/map/Const"], "attr": {"frame_name": {"s": "UHJlcHJvY2Vzc29yL21hcC93aGlsZS93aGlsZV9jb250ZXh0"}, "is_constant": {"b": false}, "parallel_iterations": {"i": "32"}, "T": {"type": "DT_INT32"}}}, {"name": "Preprocessor/map/while/Enter", "op": "Enter", "input": ["Preprocessor/map/while/iteration_counter"], "attr": {"T": {"type": "DT_INT32"}, "is_constant": {"b": false}, "frame_name": {"s": "UHJlcHJvY2Vzc29yL21hcC93aGlsZS93aGlsZV9jb250ZXh0"}, "parallel_iterations": {"i": "32"}}}, {"name": "Cast", "op": "Cast", "input": ["image_tensor"], "attr": {"SrcT": {"type": "DT_UINT8"}, "Truncate": {"b": false}, "DstT": {"type": "DT_FLOAT"}}}, {"name": "Preprocessor/map/while/Merge_1", "op": "Merge", "input": ["Preprocessor/map/while/Enter_1", "Preprocessor/map/while/NextIteration_1"], "attr": {"T": {"type": "DT_INT32"}, "N": {"i": "2"}}}, {"name": "Preprocessor/map/while/Merge", "op": "Merge", "input": ["Preprocessor/map/while/Enter", "Preprocessor/map/while/NextIteration"], "attr": {"T": {"type": "DT_INT32"}, "N": {"i": "2"}}}, {"name": "Preprocessor/mul", "op": "Mul", "input": ["Preprocessor/mul/x", "Cast"], "attr": {"T": {"type": "DT_FLOAT"}}}, {"name": "Preprocessor/sub", "op": "Sub", "input": ["Preprocessor/mul", "Preprocessor/sub/y"], "attr": {"T": {"type": "DT_FLOAT"}}}, {"name": "Preprocessor/map/TensorArrayUnstack/Shape", "op": "Shape", "input": ["Preprocessor/sub"], "attr": {"out_type": {"type": "DT_INT32"}, "T": {"type": "DT_FLOAT"}}}, {"name": "Preprocessor/map/Shape", "op": "Shape", "input": ["Preprocessor/sub"], "attr": {"out_type": {"type": "DT_INT32"}, "T": {"type": "DT_FLOAT"}}}, {"name": "Preprocessor/map/TensorArrayUnstack/strided_slice", "op": "StridedSlice", "input": ["Preprocessor/map/TensorArrayUnstack/Shape", "Preprocessor/map/TensorArrayUnstack/strided_slice/stack", "Preprocessor/map/TensorArrayUnstack/strided_slice/stack_1", "Preprocessor/map/TensorArrayUnstack/strided_slice/stack_2"], "attr": {"shrink_axis_mask": {"i": "1"}, "end_mask": {"i": "0"}, "new_axis_mask": {"i": "0"}, "Index": {"type": "DT_INT32"}, "begin_mask": {"i": "0"}, "T": {"type": "DT_INT32"}, "ellipsis_mask": {"i": "0"}}}, {"name": "Preprocessor/map/strided_slice", "op": "StridedSlice", "input": ["Preprocessor/map/Shape", "Preprocessor/map/strided_slice/stack", "Preprocessor/map/strided_slice/stack_1", "Preprocessor/map/strided_slice/stack_2"], "attr": {"new_axis_mask": {"i": "0"}, "Index": {"type": "DT_INT32"}, "shrink_axis_mask": {"i": "1"}, "T": {"type": "DT_INT32"}, "begin_mask": {"i": "0"}, "end_mask": {"i": "0"}, "ellipsis_mask": {"i": "0"}}}, {"name": "Preprocessor/map/TensorArrayUnstack/range", "op": "Range", "input": ["Preprocessor/map/TensorArrayUnstack/range/start", "Preprocessor/map/TensorArrayUnstack/strided_slice", "Preprocessor/map/TensorArrayUnstack/range/delta"], "attr": {"Tidx": {"type": "DT_INT32"}}}, {"name": "Preprocessor/map/TensorArray_1", "op": "TensorArrayV3", "input": ["Preprocessor/map/strided_slice"], "attr": {"identical_element_shapes": {"b": true}, "dynamic_size": {"b": false}, "element_shape": {"shape": {"unknownRank": true}}, "tensor_array_name": {"s": ""}, "clear_after_read": {"b": true}, "dtype": {"type": "DT_FLOAT"}}}, {"name": "Preprocessor/map/TensorArray", "op": "TensorArrayV3", "input": ["Preprocessor/map/strided_slice"], "attr": {"tensor_array_name": {"s": ""}, "element_shape": {"shape": {"unknownRank": true}}, "dtype": {"type": "DT_FLOAT"}, "dynamic_size": {"b": false}, "clear_after_read": {"b": true}, "identical_element_shapes": {"b": true}}}, {"name": "Preprocessor/map/while/Less/Enter", "op": "Enter", "input": ["Preprocessor/map/strided_slice"], "attr": {"T": {"type": "DT_INT32"}, "parallel_iterations": {"i": "32"}, "is_constant": {"b": true}, "frame_name": {"s": "UHJlcHJvY2Vzc29yL21hcC93aGlsZS93aGlsZV9jb250ZXh0"}}}, {"name": "Preprocessor/map/while/TensorArrayWrite/TensorArrayWriteV3/Enter", "op": "Enter", "input": ["Preprocessor/map/TensorArray_1"], "attr": {"parallel_iterations": {"i": "32"}, "is_constant": {"b": true}, "T": {"type": "DT_RESOURCE"}, "frame_name": {"s": "UHJlcHJvY2Vzc29yL21hcC93aGlsZS93aGlsZV9jb250ZXh0"}}}, {"name": "Preprocessor/map/while/Enter_2", "op": "Enter", "input": ["Preprocessor/map/TensorArray_1:1"], "attr": {"is_constant": {"b": false}, "frame_name": {"s": "UHJlcHJvY2Vzc29yL21hcC93aGlsZS93aGlsZV9jb250ZXh0"}, "parallel_iterations": {"i": "32"}, "T": {"type": "DT_FLOAT"}}}, {"name": "Preprocessor/map/while/TensorArrayReadV3/Enter", "op": "Enter", "input": ["Preprocessor/map/TensorArray"], "attr": {"is_constant": {"b": true}, "T": {"type": "DT_RESOURCE"}, "frame_name": {"s": "UHJlcHJvY2Vzc29yL21hcC93aGlsZS93aGlsZV9jb250ZXh0"}, "parallel_iterations": {"i": "32"}}}, {"name": "Preprocessor/map/TensorArrayUnstack/TensorArrayScatter/TensorArrayScatterV3", "op": "TensorArrayScatterV3", "input": ["Preprocessor/map/TensorArray", "Preprocessor/map/TensorArrayUnstack/range", "Preprocessor/sub", "Preprocessor/map/TensorArray:1"], "attr": {"T": {"type": "DT_FLOAT"}}}, {"name": "Preprocessor/map/while/Less", "op": "Less", "input": ["Preprocessor/map/while/Merge", "Preprocessor/map/while/Less/Enter"], "attr": {"T": {"type": "DT_INT32"}}}, {"name": "Preprocessor/map/while/Less_1", "op": "Less", "input": ["Preprocessor/map/while/Merge_1", "Preprocessor/map/while/Less/Enter"], "attr": {"T": {"type": "DT_INT32"}}}, {"name": "Preprocessor/map/while/Merge_2", "op": "Merge", "input": ["Preprocessor/map/while/Enter_2", "Preprocessor/map/while/NextIteration_2"], "attr": {"N": {"i": "2"}, "T": {"type": "DT_FLOAT"}}}, {"name": "Preprocessor/map/while/TensorArrayReadV3/Enter_1", "op": "Enter", "input": ["Preprocessor/map/TensorArrayUnstack/TensorArrayScatter/TensorArrayScatterV3"], "attr": {"T": {"type": "DT_FLOAT"}, "frame_name": {"s": "UHJlcHJvY2Vzc29yL21hcC93aGlsZS93aGlsZV9jb250ZXh0"}, "parallel_iterations": {"i": "32"}, "is_constant": {"b": true}}}, {"name": "Preprocessor/map/while/LogicalAnd", "op": "LogicalAnd", "input": ["Preprocessor/map/while/Less", "Preprocessor/map/while/Less_1"]}, {"name": "Preprocessor/map/while/LoopCond", "op": "LoopCond", "input": ["Preprocessor/map/while/LogicalAnd"]}, {"name": "Preprocessor/map/while/Switch_1", "op": "Switch", "input": ["Preprocessor/map/while/Merge_1", "Preprocessor/map/while/LoopCond"], "attr": {"T": {"type": "DT_INT32"}}}, {"name": "Preprocessor/map/while/Switch", "op": "Switch", "input": ["Preprocessor/map/while/Merge", "Preprocessor/map/while/LoopCond"], "attr": {"T": {"type": "DT_INT32"}}}, {"name": "Preprocessor/map/while/Switch_2", "op": "Switch", "input": ["Preprocessor/map/while/Merge_2", "Preprocessor/map/while/LoopCond"], "attr": {"T": {"type": "DT_FLOAT"}}}, {"name": "Preprocessor/map/while/TensorArrayReadV3", "op": "TensorArrayReadV3", "input": ["Preprocessor/map/while/TensorArrayReadV3/Enter", "Preprocessor/map/while/Switch_1:1", "Preprocessor/map/while/TensorArrayReadV3/Enter_1"], "attr": {"dtype": {"type": "DT_FLOAT"}}}, {"name": "Preprocessor/map/while/Identity", "op": "Identity", "input": ["Preprocessor/map/while/Switch:1"], "attr": {"T": {"type": "DT_INT32"}}}, {"name": "Preprocessor/map/while/Exit_2", "op": "Exit", "input": ["Preprocessor/map/while/Switch_2"], "attr": {"T": {"type": "DT_FLOAT"}}}, {"name": "Preprocessor/map/while/ResizeImage/resize/ExpandDims/dim", "op": "Const", "input": ["^Preprocessor/map/while/Identity"], "attr": {"dtype": {"type": "DT_INT32"}, "value": {"tensor": {"dtype": "DT_INT32", "tensorShape": {}}}}}, {"name": "Preprocessor/map/while/ResizeImage/stack", "op": "Const", "input": ["^Preprocessor/map/while/Identity"], "attr": {"dtype": {"type": "DT_INT32"}, "value": {"tensor": {"dtype": "DT_INT32", "tensorShape": {"dim": [{"size": "2"}]}}}}}, {"name": "Preprocessor/map/while/add/y", "op": "Const", "input": ["^Preprocessor/map/while/Identity"], "attr": {"value": {"tensor": {"dtype": "DT_INT32", "tensorShape": {}}}, "dtype": {"type": "DT_INT32"}}}, {"name": "Preprocessor/map/while/add_1/y", "op": "Const", "input": ["^Preprocessor/map/while/Identity"], "attr": {"value": {"tensor": {"dtype": "DT_INT32", "tensorShape": {}}}, "dtype": {"type": "DT_INT32"}}}, {"name": "Preprocessor/map/TensorArrayStack/TensorArraySizeV3", "op": "TensorArraySizeV3", "input": ["Preprocessor/map/TensorArray_1", "Preprocessor/map/while/Exit_2"]}, {"name": "Preprocessor/map/while/ResizeImage/resize/ExpandDims", "op": "ExpandDims", "input": ["Preprocessor/map/while/TensorArrayReadV3", "Preprocessor/map/while/ResizeImage/resize/ExpandDims/dim"], "attr": {"Tdim": {"type": "DT_INT32"}, "T": {"type": "DT_FLOAT"}}}, {"name": "Preprocessor/map/while/add", "op": "AddV2", "input": ["Preprocessor/map/while/Identity", "Preprocessor/map/while/add/y"], "attr": {"T": {"type": "DT_INT32"}}}, {"name": "Preprocessor/map/while/add_1", "op": "AddV2", "input": ["Preprocessor/map/while/Switch_1:1", "Preprocessor/map/while/add_1/y"], "attr": {"T": {"type": "DT_INT32"}}}, {"name": "Preprocessor/map/TensorArrayStack/range", "op": "Range", "input": ["Preprocessor/map/TensorArrayStack/range/start", "Preprocessor/map/TensorArrayStack/TensorArraySizeV3", "Preprocessor/map/TensorArrayStack/range/delta"], "attr": {"Tidx": {"type": "DT_INT32"}}}, {"name": "Preprocessor/map/while/ResizeImage/resize/ResizeBilinear", "op": "ResizeBilinear", "input": ["Preprocessor/map/while/ResizeImage/resize/ExpandDims", "Preprocessor/map/while/ResizeImage/stack"], "attr": {"T": {"type": "DT_FLOAT"}, "half_pixel_centers": {"b": false}, "align_corners": {"b": false}}}, {"name": "Preprocessor/map/while/NextIteration", "op": "NextIteration", "input": ["Preprocessor/map/while/add"], "attr": {"T": {"type": "DT_INT32"}}}, {"name": "Preprocessor/map/while/NextIteration_1", "op": "NextIteration", "input": ["Preprocessor/map/while/add_1"], "attr": {"T": {"type": "DT_INT32"}}}, {"name": "Preprocessor/map/TensorArrayStack/TensorArrayGatherV3", "op": "TensorArrayGatherV3", "input": ["Preprocessor/map/TensorArray_1", "Preprocessor/map/TensorArrayStack/range", "Preprocessor/map/while/Exit_2"], "attr": {"dtype": {"type": "DT_FLOAT"}, "element_shape": {"shape": {"dim": [{"size": "320"}, {"size": "320"}, {"size": "3"}]}}}}, {"name": "Preprocessor/map/while/ResizeImage/resize/Squeeze", "op": "Squeeze", "input": ["Preprocessor/map/while/ResizeImage/resize/ResizeBilinear"], "attr": {"squeeze_dims": {"list": {"i": ["0"]}}, "T": {"type": "DT_FLOAT"}}}, {"name": "FeatureExtractor/MobilenetV3/Conv/BatchNorm/FusedBatchNormV3", "op": "_FusedConv2D", "input": ["Preprocessor/map/TensorArrayStack/TensorArrayGatherV3", "FeatureExtractor/MobilenetV3/Conv/Conv2D_weights", "FeatureExtractor/MobilenetV3/Conv/Conv2D_bn_offset"], "device": "/device:CPU:0", "attr": {"epsilon": {"f": 0.0}, "data_format": {"s": "TkhXQw=="}, "T": {"type": "DT_FLOAT"}, "fused_ops": {"list": {"s": ["Qmlhc0FkZA=="]}}, "padding": {"s": "U0FNRQ=="}, "strides": {"list": {"i": ["1", "2", "2", "1"]}}, "dilations": {"list": {"i": ["1", "1", "1", "1"]}}, "use_cudnn_on_gpu": {"b": true}, "explicit_paddings": {"list": {}}, "num_args": {"i": "1"}}}, {"name": "Preprocessor/map/while/TensorArrayWrite/TensorArrayWriteV3", "op": "TensorArrayWriteV3", "input": ["Preprocessor/map/while/TensorArrayWrite/TensorArrayWriteV3/Enter", "Preprocessor/map/while/Switch_1:1", "Preprocessor/map/while/ResizeImage/resize/Squeeze", "Preprocessor/map/while/Switch_2:1"], "attr": {"T": {"type": "DT_FLOAT"}}}, {"name": "FeatureExtractor/MobilenetV3/Conv/hard_swish/mul", "op": "Mul", "input": ["FeatureExtractor/MobilenetV3/Conv/hard_swish/mul_1/y", "FeatureExtractor/MobilenetV3/Conv/BatchNorm/FusedBatchNormV3"], "attr": {"_grappler_ArithmeticOptimizer_MinimizeBroadcasts": {"b": true}, "T": {"type": "DT_FLOAT"}}}, {"name": "FeatureExtractor/MobilenetV3/Conv/hard_swish/add", "op": "AddV2", "input": ["FeatureExtractor/MobilenetV3/Conv/BatchNorm/FusedBatchNormV3", "FeatureExtractor/MobilenetV3/Conv/hard_swish/add/y"], "attr": {"T": {"type": "DT_FLOAT"}}}, {"name": "Preprocessor/map/while/NextIteration_2", "op": "NextIteration", "input": ["Preprocessor/map/while/TensorArrayWrite/TensorArrayWriteV3"], "attr": {"T": {"type": "DT_FLOAT"}}}, {"name": "FeatureExtractor/MobilenetV3/Conv/hard_swish/Relu6", "op": "Relu6", "input": ["FeatureExtractor/MobilenetV3/Conv/hard_swish/add"], "attr": {"T": {"type": "DT_FLOAT"}}}, {"name": "FeatureExtractor/MobilenetV3/Conv/hard_swish/mul_1", "op": "Mul", "input": ["FeatureExtractor/MobilenetV3/Conv/hard_swish/mul", "FeatureExtractor/MobilenetV3/Conv/hard_swish/Relu6"], "attr": {"T": {"type": "DT_FLOAT"}, "_grappler_ArithmeticOptimizer_MinimizeBroadcasts": {"b": true}}}, {"name": "FeatureExtractor/MobilenetV3/expanded_conv/depthwise/depthwise", "op": "FusedDepthwiseConv2dNative", "input": ["FeatureExtractor/MobilenetV3/Conv/hard_swish/mul_1", "FeatureExtractor/MobilenetV3/expanded_conv/depthwise/depthwise_weights", "FeatureExtractor/MobilenetV3/expanded_conv/depthwise/depthwise_bn_offset"], "attr": {"dilations": {"list": {"i": ["1", "1", "1", "1"]}}, "fused_ops": {"list": {"s": ["Qmlhc0FkZA==", "UmVsdQ=="]}}, "T": {"type": "DT_FLOAT"}, "padding": {"s": "U0FNRQ=="}, "data_format": {"s": "TkhXQw=="}, "num_args": {"i": "1"}, "strides": {"list": {"i": ["1", "2", "2", "1"]}}, "explicit_paddings": {"list": {}}}}, {"name": "FeatureExtractor/MobilenetV3/expanded_conv/squeeze_excite/Mean", "op": "Mean", "input": ["FeatureExtractor/MobilenetV3/expanded_conv/depthwise/depthwise", "FeatureExtractor/MobilenetV3/expanded_conv/squeeze_excite/Mean/reduction_indices"], "attr": {"T": {"type": "DT_FLOAT"}, "Tidx": {"type": "DT_INT32"}, "keep_dims": {"b": true}}}, {"name": "FeatureExtractor/MobilenetV3/expanded_conv/squeeze_excite/Conv/Relu", "op": "_FusedConv2D", "input": ["FeatureExtractor/MobilenetV3/expanded_conv/squeeze_excite/Mean", "FeatureExtractor/MobilenetV3/expanded_conv/squeeze_excite/Conv/weights", "FeatureExtractor/MobilenetV3/expanded_conv/squeeze_excite/Conv/biases"], "device": "/device:CPU:0", "attr": {"epsilon": {"f": 0.0}, "strides": {"list": {"i": ["1", "1", "1", "1"]}}, "padding": {"s": "U0FNRQ=="}, "num_args": {"i": "1"}, "dilations": {"list": {"i": ["1", "1", "1", "1"]}}, "explicit_paddings": {"list": {}}, "use_cudnn_on_gpu": {"b": true}, "T": {"type": "DT_FLOAT"}, "fused_ops": {"list": {"s": ["Qmlhc0FkZA==", "UmVsdQ=="]}}, "data_format": {"s": "TkhXQw=="}}}, {"name": "FeatureExtractor/MobilenetV3/expanded_conv/squeeze_excite/Conv_1/BiasAdd", "op": "_FusedConv2D", "input": ["FeatureExtractor/MobilenetV3/expanded_conv/squeeze_excite/Conv/Relu", "FeatureExtractor/MobilenetV3/expanded_conv/squeeze_excite/Conv_1/weights", "FeatureExtractor/MobilenetV3/expanded_conv/squeeze_excite/Conv_1/biases"], "device": "/device:CPU:0", "attr": {"fused_ops": {"list": {"s": ["Qmlhc0FkZA=="]}}, "use_cudnn_on_gpu": {"b": true}, "data_format": {"s": "TkhXQw=="}, "strides": {"list": {"i": ["1", "1", "1", "1"]}}, "explicit_paddings": {"list": {}}, "num_args": {"i": "1"}, "T": {"type": "DT_FLOAT"}, "padding": {"s": "U0FNRQ=="}, "dilations": {"list": {"i": ["1", "1", "1", "1"]}}, "epsilon": {"f": 0.0}}}, {"name": "FeatureExtractor/MobilenetV3/expanded_conv/squeeze_excite/Conv_1/add", "op": "AddV2", "input": ["FeatureExtractor/MobilenetV3/expanded_conv/squeeze_excite/Conv_1/BiasAdd", "FeatureExtractor/MobilenetV3/expanded_conv/squeeze_excite/Conv_1/add/y"], "attr": {"T": {"type": "DT_FLOAT"}}}, {"name": "FeatureExtractor/MobilenetV3/expanded_conv/squeeze_excite/Conv_1/Relu6", "op": "Relu6", "input": ["FeatureExtractor/MobilenetV3/expanded_conv/squeeze_excite/Conv_1/add"], "attr": {"T": {"type": "DT_FLOAT"}}}, {"name": "FeatureExtractor/MobilenetV3/expanded_conv/squeeze_excite/Conv_1/mul", "op": "Mul", "input": ["FeatureExtractor/MobilenetV3/expanded_conv/squeeze_excite/Conv_1/mul/y", "FeatureExtractor/MobilenetV3/expanded_conv/squeeze_excite/Conv_1/Relu6"], "attr": {"_grappler_ArithmeticOptimizer_MinimizeBroadcasts": {"b": true}, "T": {"type": "DT_FLOAT"}}}, {"name": "FeatureExtractor/MobilenetV3/expanded_conv/squeeze_excite/mul", "op": "Mul", "input": ["FeatureExtractor/MobilenetV3/expanded_conv/squeeze_excite/Conv_1/mul", "FeatureExtractor/MobilenetV3/expanded_conv/depthwise/depthwise"], "attr": {"_grappler_ArithmeticOptimizer_MinimizeBroadcasts": {"b": true}, "T": {"type": "DT_FLOAT"}}}, {"name": "FeatureExtractor/MobilenetV3/expanded_conv/project/BatchNorm/FusedBatchNormV3", "op": "_FusedConv2D", "input": ["FeatureExtractor/MobilenetV3/expanded_conv/squeeze_excite/mul", "FeatureExtractor/MobilenetV3/expanded_conv/project/Conv2D_weights", "FeatureExtractor/MobilenetV3/expanded_conv/project/Conv2D_bn_offset"], "device": "/device:CPU:0", "attr": {"num_args": {"i": "1"}, "explicit_paddings": {"list": {}}, "T": {"type": "DT_FLOAT"}, "epsilon": {"f": 0.0}, "data_format": {"s": "TkhXQw=="}, "strides": {"list": {"i": ["1", "1", "1", "1"]}}, "fused_ops": {"list": {"s": ["Qmlhc0FkZA=="]}}, "dilations": {"list": {"i": ["1", "1", "1", "1"]}}, "use_cudnn_on_gpu": {"b": true}, "padding": {"s": "U0FNRQ=="}}}, {"name": "FeatureExtractor/MobilenetV3/expanded_conv_1/expand/Relu", "op": "_FusedConv2D", "input": ["FeatureExtractor/MobilenetV3/expanded_conv/project/BatchNorm/FusedBatchNormV3", "FeatureExtractor/MobilenetV3/expanded_conv_1/expand/Conv2D_weights", "FeatureExtractor/MobilenetV3/expanded_conv_1/expand/Conv2D_bn_offset"], "device": "/device:CPU:0", "attr": {"use_cudnn_on_gpu": {"b": true}, "dilations": {"list": {"i": ["1", "1", "1", "1"]}}, "data_format": {"s": "TkhXQw=="}, "strides": {"list": {"i": ["1", "1", "1", "1"]}}, "epsilon": {"f": 0.0}, "padding": {"s": "U0FNRQ=="}, "num_args": {"i": "1"}, "fused_ops": {"list": {"s": ["Qmlhc0FkZA==", "UmVsdQ=="]}}, "T": {"type": "DT_FLOAT"}, "explicit_paddings": {"list": {}}}}, {"name": "FeatureExtractor/MobilenetV3/expanded_conv_1/depthwise/depthwise", "op": "FusedDepthwiseConv2dNative", "input": ["FeatureExtractor/MobilenetV3/expanded_conv_1/expand/Relu", "FeatureExtractor/MobilenetV3/expanded_conv_1/depthwise/depthwise_weights", "FeatureExtractor/MobilenetV3/expanded_conv_1/depthwise/depthwise_bn_offset"], "attr": {"fused_ops": {"list": {"s": ["Qmlhc0FkZA==", "UmVsdQ=="]}}, "T": {"type": "DT_FLOAT"}, "num_args": {"i": "1"}, "data_format": {"s": "TkhXQw=="}, "strides": {"list": {"i": ["1", "2", "2", "1"]}}, "padding": {"s": "U0FNRQ=="}, "explicit_paddings": {"list": {}}, "dilations": {"list": {"i": ["1", "1", "1", "1"]}}}}, {"name": "FeatureExtractor/MobilenetV3/expanded_conv_1/project/BatchNorm/FusedBatchNormV3", "op": "_FusedConv2D", "input": ["FeatureExtractor/MobilenetV3/expanded_conv_1/depthwise/depthwise", "FeatureExtractor/MobilenetV3/expanded_conv_1/project/Conv2D_weights", "FeatureExtractor/MobilenetV3/expanded_conv_1/project/Conv2D_bn_offset"], "device": "/device:CPU:0", "attr": {"data_format": {"s": "TkhXQw=="}, "padding": {"s": "U0FNRQ=="}, "dilations": {"list": {"i": ["1", "1", "1", "1"]}}, "explicit_paddings": {"list": {}}, "num_args": {"i": "1"}, "T": {"type": "DT_FLOAT"}, "strides": {"list": {"i": ["1", "1", "1", "1"]}}, "epsilon": {"f": 0.0}, "use_cudnn_on_gpu": {"b": true}, "fused_ops": {"list": {"s": ["Qmlhc0FkZA=="]}}}}, {"name": "FeatureExtractor/MobilenetV3/expanded_conv_2/expand/Relu", "op": "_FusedConv2D", "input": ["FeatureExtractor/MobilenetV3/expanded_conv_1/project/BatchNorm/FusedBatchNormV3", "FeatureExtractor/MobilenetV3/expanded_conv_2/expand/Conv2D_weights", "FeatureExtractor/MobilenetV3/expanded_conv_2/expand/Conv2D_bn_offset"], "device": "/device:CPU:0", "attr": {"padding": {"s": "U0FNRQ=="}, "epsilon": {"f": 0.0}, "use_cudnn_on_gpu": {"b": true}, "T": {"type": "DT_FLOAT"}, "dilations": {"list": {"i": ["1", "1", "1", "1"]}}, "explicit_paddings": {"list": {}}, "strides": {"list": {"i": ["1", "1", "1", "1"]}}, "data_format": {"s": "TkhXQw=="}, "num_args": {"i": "1"}, "fused_ops": {"list": {"s": ["Qmlhc0FkZA==", "UmVsdQ=="]}}}}, {"name": "FeatureExtractor/MobilenetV3/expanded_conv_2/depthwise/depthwise", "op": "FusedDepthwiseConv2dNative", "input": ["FeatureExtractor/MobilenetV3/expanded_conv_2/expand/Relu", "FeatureExtractor/MobilenetV3/expanded_conv_2/depthwise/depthwise_weights", "FeatureExtractor/MobilenetV3/expanded_conv_2/depthwise/depthwise_bn_offset"], "attr": {"T": {"type": "DT_FLOAT"}, "num_args": {"i": "1"}, "explicit_paddings": {"list": {}}, "padding": {"s": "U0FNRQ=="}, "fused_ops": {"list": {"s": ["Qmlhc0FkZA==", "UmVsdQ=="]}}, "strides": {"list": {"i": ["1", "1", "1", "1"]}}, "dilations": {"list": {"i": ["1", "1", "1", "1"]}}, "data_format": {"s": "TkhXQw=="}}}, {"name": "FeatureExtractor/MobilenetV3/expanded_conv_2/project/BatchNorm/FusedBatchNormV3", "op": "_FusedConv2D", "input": ["FeatureExtractor/MobilenetV3/expanded_conv_2/depthwise/depthwise", "FeatureExtractor/MobilenetV3/expanded_conv_2/project/Conv2D_weights", "FeatureExtractor/MobilenetV3/expanded_conv_2/project/Conv2D_bn_offset"], "device": "/device:CPU:0", "attr": {"padding": {"s": "U0FNRQ=="}, "dilations": {"list": {"i": ["1", "1", "1", "1"]}}, "num_args": {"i": "1"}, "explicit_paddings": {"list": {}}, "use_cudnn_on_gpu": {"b": true}, "T": {"type": "DT_FLOAT"}, "data_format": {"s": "TkhXQw=="}, "epsilon": {"f": 0.0}, "fused_ops": {"list": {"s": ["Qmlhc0FkZA=="]}}, "strides": {"list": {"i": ["1", "1", "1", "1"]}}}}, {"name": "FeatureExtractor/MobilenetV3/expanded_conv_2/add", "op": "AddV2", "input": ["FeatureExtractor/MobilenetV3/expanded_conv_2/project/BatchNorm/FusedBatchNormV3", "FeatureExtractor/MobilenetV3/expanded_conv_1/project/BatchNorm/FusedBatchNormV3"], "attr": {"T": {"type": "DT_FLOAT"}}}, {"name": "FeatureExtractor/MobilenetV3/expanded_conv_3/expand/BatchNorm/FusedBatchNormV3", "op": "_FusedConv2D", "input": ["FeatureExtractor/MobilenetV3/expanded_conv_2/add", "FeatureExtractor/MobilenetV3/expanded_conv_3/expand/Conv2D_weights", "FeatureExtractor/MobilenetV3/expanded_conv_3/expand/Conv2D_bn_offset"], "device": "/device:CPU:0", "attr": {"epsilon": {"f": 0.0}, "dilations": {"list": {"i": ["1", "1", "1", "1"]}}, "use_cudnn_on_gpu": {"b": true}, "num_args": {"i": "1"}, "padding": {"s": "U0FNRQ=="}, "T": {"type": "DT_FLOAT"}, "explicit_paddings": {"list": {}}, "strides": {"list": {"i": ["1", "1", "1", "1"]}}, "data_format": {"s": "TkhXQw=="}, "fused_ops": {"list": {"s": ["Qmlhc0FkZA=="]}}}}, {"name": "FeatureExtractor/MobilenetV3/expanded_conv_3/expand/hard_swish/mul", "op": "Mul", "input": ["FeatureExtractor/MobilenetV3/expanded_conv_3/expand/hard_swish/mul_1/y", "FeatureExtractor/MobilenetV3/expanded_conv_3/expand/BatchNorm/FusedBatchNormV3"], "attr": {"_grappler_ArithmeticOptimizer_MinimizeBroadcasts": {"b": true}, "T": {"type": "DT_FLOAT"}}}, {"name": "FeatureExtractor/MobilenetV3/expanded_conv_3/expand/hard_swish/add", "op": "AddV2", "input": ["FeatureExtractor/MobilenetV3/expanded_conv_3/expand/BatchNorm/FusedBatchNormV3", "FeatureExtractor/MobilenetV3/expanded_conv_3/expand/hard_swish/add/y"], "attr": {"T": {"type": "DT_FLOAT"}}}, {"name": "FeatureExtractor/MobilenetV3/expanded_conv_3/expand/hard_swish/Relu6", "op": "Relu6", "input": ["FeatureExtractor/MobilenetV3/expanded_conv_3/expand/hard_swish/add"], "attr": {"T": {"type": "DT_FLOAT"}}}, {"name": "FeatureExtractor/MobilenetV3/expanded_conv_3/expand/hard_swish/mul_1", "op": "Mul", "input": ["FeatureExtractor/MobilenetV3/expanded_conv_3/expand/hard_swish/mul", "FeatureExtractor/MobilenetV3/expanded_conv_3/expand/hard_swish/Relu6"], "attr": {"_grappler_ArithmeticOptimizer_MinimizeBroadcasts": {"b": true}, "T": {"type": "DT_FLOAT"}}}, {"name": "FeatureExtractor/MobilenetV3/expanded_conv_3/depthwise/depthwise", "op": "FusedDepthwiseConv2dNative", "input": ["FeatureExtractor/MobilenetV3/expanded_conv_3/expand/hard_swish/mul_1", "FeatureExtractor/MobilenetV3/expanded_conv_3/depthwise/depthwise_weights", "FeatureExtractor/MobilenetV3/expanded_conv_3/depthwise/depthwise_bn_offset"], "attr": {"strides": {"list": {"i": ["1", "2", "2", "1"]}}, "explicit_paddings": {"list": {}}, "padding": {"s": "U0FNRQ=="}, "fused_ops": {"list": {"s": ["Qmlhc0FkZA=="]}}, "T": {"type": "DT_FLOAT"}, "num_args": {"i": "1"}, "dilations": {"list": {"i": ["1", "1", "1", "1"]}}, "data_format": {"s": "TkhXQw=="}}}, {"name": "FeatureExtractor/MobilenetV3/expanded_conv_3/depthwise/hard_swish/mul", "op": "Mul", "input": ["FeatureExtractor/MobilenetV3/expanded_conv_3/depthwise/hard_swish/mul_1/y", "FeatureExtractor/MobilenetV3/expanded_conv_3/depthwise/depthwise"], "attr": {"_grappler_ArithmeticOptimizer_MinimizeBroadcasts": {"b": true}, "T": {"type": "DT_FLOAT"}}}, {"name": "FeatureExtractor/MobilenetV3/expanded_conv_3/depthwise/hard_swish/add", "op": "AddV2", "input": ["FeatureExtractor/MobilenetV3/expanded_conv_3/depthwise/depthwise", "FeatureExtractor/MobilenetV3/expanded_conv_3/depthwise/hard_swish/add/y"], "attr": {"T": {"type": "DT_FLOAT"}}}, {"name": "FeatureExtractor/MobilenetV3/expanded_conv_3/depthwise/hard_swish/Relu6", "op": "Relu6", "input": ["FeatureExtractor/MobilenetV3/expanded_conv_3/depthwise/hard_swish/add"], "attr": {"T": {"type": "DT_FLOAT"}}}, {"name": "FeatureExtractor/MobilenetV3/expanded_conv_3/depthwise/hard_swish/mul_1", "op": "Mul", "input": ["FeatureExtractor/MobilenetV3/expanded_conv_3/depthwise/hard_swish/mul", "FeatureExtractor/MobilenetV3/expanded_conv_3/depthwise/hard_swish/Relu6"], "attr": {"_grappler_ArithmeticOptimizer_MinimizeBroadcasts": {"b": true}, "T": {"type": "DT_FLOAT"}}}, {"name": "FeatureExtractor/MobilenetV3/expanded_conv_3/squeeze_excite/Mean", "op": "Mean", "input": ["FeatureExtractor/MobilenetV3/expanded_conv_3/depthwise/hard_swish/mul_1", "FeatureExtractor/MobilenetV3/expanded_conv_3/squeeze_excite/Mean/reduction_indices"], "attr": {"keep_dims": {"b": true}, "T": {"type": "DT_FLOAT"}, "Tidx": {"type": "DT_INT32"}}}, {"name": "FeatureExtractor/MobilenetV3/expanded_conv_3/squeeze_excite/Conv/Relu", "op": "_FusedConv2D", "input": ["FeatureExtractor/MobilenetV3/expanded_conv_3/squeeze_excite/Mean", "FeatureExtractor/MobilenetV3/expanded_conv_3/squeeze_excite/Conv/weights", "FeatureExtractor/MobilenetV3/expanded_conv_3/squeeze_excite/Conv/biases"], "device": "/device:CPU:0", "attr": {"fused_ops": {"list": {"s": ["Qmlhc0FkZA==", "UmVsdQ=="]}}, "use_cudnn_on_gpu": {"b": true}, "strides": {"list": {"i": ["1", "1", "1", "1"]}}, "epsilon": {"f": 0.0}, "dilations": {"list": {"i": ["1", "1", "1", "1"]}}, "data_format": {"s": "TkhXQw=="}, "padding": {"s": "U0FNRQ=="}, "explicit_paddings": {"list": {}}, "T": {"type": "DT_FLOAT"}, "num_args": {"i": "1"}}}, {"name": "FeatureExtractor/MobilenetV3/expanded_conv_3/squeeze_excite/Conv_1/BiasAdd", "op": "_FusedConv2D", "input": ["FeatureExtractor/MobilenetV3/expanded_conv_3/squeeze_excite/Conv/Relu", "FeatureExtractor/MobilenetV3/expanded_conv_3/squeeze_excite/Conv_1/weights", "FeatureExtractor/MobilenetV3/expanded_conv_3/squeeze_excite/Conv_1/biases"], "device": "/device:CPU:0", "attr": {"num_args": {"i": "1"}, "dilations": {"list": {"i": ["1", "1", "1", "1"]}}, "strides": {"list": {"i": ["1", "1", "1", "1"]}}, "data_format": {"s": "TkhXQw=="}, "explicit_paddings": {"list": {}}, "T": {"type": "DT_FLOAT"}, "fused_ops": {"list": {"s": ["Qmlhc0FkZA=="]}}, "use_cudnn_on_gpu": {"b": true}, "epsilon": {"f": 0.0}, "padding": {"s": "U0FNRQ=="}}}, {"name": "FeatureExtractor/MobilenetV3/expanded_conv_3/squeeze_excite/Conv_1/add", "op": "AddV2", "input": ["FeatureExtractor/MobilenetV3/expanded_conv_3/squeeze_excite/Conv_1/BiasAdd", "FeatureExtractor/MobilenetV3/expanded_conv_3/squeeze_excite/Conv_1/add/y"], "attr": {"T": {"type": "DT_FLOAT"}}}, {"name": "FeatureExtractor/MobilenetV3/expanded_conv_3/squeeze_excite/Conv_1/Relu6", "op": "Relu6", "input": ["FeatureExtractor/MobilenetV3/expanded_conv_3/squeeze_excite/Conv_1/add"], "attr": {"T": {"type": "DT_FLOAT"}}}, {"name": "FeatureExtractor/MobilenetV3/expanded_conv_3/squeeze_excite/Conv_1/mul", "op": "Mul", "input": ["FeatureExtractor/MobilenetV3/expanded_conv_3/squeeze_excite/Conv_1/mul/y", "FeatureExtractor/MobilenetV3/expanded_conv_3/squeeze_excite/Conv_1/Relu6"], "attr": {"_grappler_ArithmeticOptimizer_MinimizeBroadcasts": {"b": true}, "T": {"type": "DT_FLOAT"}}}, {"name": "FeatureExtractor/MobilenetV3/expanded_conv_3/squeeze_excite/mul", "op": "Mul", "input": ["FeatureExtractor/MobilenetV3/expanded_conv_3/squeeze_excite/Conv_1/mul", "FeatureExtractor/MobilenetV3/expanded_conv_3/depthwise/hard_swish/mul_1"], "attr": {"T": {"type": "DT_FLOAT"}, "_grappler_ArithmeticOptimizer_MinimizeBroadcasts": {"b": true}}}, {"name": "FeatureExtractor/MobilenetV3/expanded_conv_3/project/BatchNorm/FusedBatchNormV3", "op": "_FusedConv2D", "input": ["FeatureExtractor/MobilenetV3/expanded_conv_3/squeeze_excite/mul", "FeatureExtractor/MobilenetV3/expanded_conv_3/project/Conv2D_weights", "FeatureExtractor/MobilenetV3/expanded_conv_3/project/Conv2D_bn_offset"], "device": "/device:CPU:0", "attr": {"T": {"type": "DT_FLOAT"}, "epsilon": {"f": 0.0}, "explicit_paddings": {"list": {}}, "dilations": {"list": {"i": ["1", "1", "1", "1"]}}, "fused_ops": {"list": {"s": ["Qmlhc0FkZA=="]}}, "strides": {"list": {"i": ["1", "1", "1", "1"]}}, "use_cudnn_on_gpu": {"b": true}, "padding": {"s": "U0FNRQ=="}, "data_format": {"s": "TkhXQw=="}, "num_args": {"i": "1"}}}, {"name": "FeatureExtractor/MobilenetV3/expanded_conv_4/expand/BatchNorm/FusedBatchNormV3", "op": "_FusedConv2D", "input": ["FeatureExtractor/MobilenetV3/expanded_conv_3/project/BatchNorm/FusedBatchNormV3", "FeatureExtractor/MobilenetV3/expanded_conv_4/expand/Conv2D_weights", "FeatureExtractor/MobilenetV3/expanded_conv_4/expand/Conv2D_bn_offset"], "device": "/device:CPU:0", "attr": {"dilations": {"list": {"i": ["1", "1", "1", "1"]}}, "use_cudnn_on_gpu": {"b": true}, "epsilon": {"f": 0.0}, "data_format": {"s": "TkhXQw=="}, "explicit_paddings": {"list": {}}, "padding": {"s": "U0FNRQ=="}, "strides": {"list": {"i": ["1", "1", "1", "1"]}}, "num_args": {"i": "1"}, "fused_ops": {"list": {"s": ["Qmlhc0FkZA=="]}}, "T": {"type": "DT_FLOAT"}}}, {"name": "FeatureExtractor/MobilenetV3/expanded_conv_4/expand/hard_swish/mul", "op": "Mul", "input": ["FeatureExtractor/MobilenetV3/expanded_conv_4/expand/hard_swish/mul_1/y", "FeatureExtractor/MobilenetV3/expanded_conv_4/expand/BatchNorm/FusedBatchNormV3"], "attr": {"T": {"type": "DT_FLOAT"}, "_grappler_ArithmeticOptimizer_MinimizeBroadcasts": {"b": true}}}, {"name": "FeatureExtractor/MobilenetV3/expanded_conv_4/expand/hard_swish/add", "op": "AddV2", "input": ["FeatureExtractor/MobilenetV3/expanded_conv_4/expand/BatchNorm/FusedBatchNormV3", "FeatureExtractor/MobilenetV3/expanded_conv_4/expand/hard_swish/add/y"], "attr": {"T": {"type": "DT_FLOAT"}}}, {"name": "FeatureExtractor/MobilenetV3/expanded_conv_4/expand/hard_swish/Relu6", "op": "Relu6", "input": ["FeatureExtractor/MobilenetV3/expanded_conv_4/expand/hard_swish/add"], "attr": {"T": {"type": "DT_FLOAT"}}}, {"name": "FeatureExtractor/MobilenetV3/expanded_conv_4/expand/hard_swish/mul_1", "op": "Mul", "input": ["FeatureExtractor/MobilenetV3/expanded_conv_4/expand/hard_swish/mul", "FeatureExtractor/MobilenetV3/expanded_conv_4/expand/hard_swish/Relu6"], "attr": {"T": {"type": "DT_FLOAT"}, "_grappler_ArithmeticOptimizer_MinimizeBroadcasts": {"b": true}}}, {"name": "FeatureExtractor/MobilenetV3/expanded_conv_4/depthwise/depthwise", "op": "FusedDepthwiseConv2dNative", "input": ["FeatureExtractor/MobilenetV3/expanded_conv_4/expand/hard_swish/mul_1", "FeatureExtractor/MobilenetV3/expanded_conv_4/depthwise/depthwise_weights", "FeatureExtractor/MobilenetV3/expanded_conv_4/depthwise/depthwise_bn_offset"], "attr": {"fused_ops": {"list": {"s": ["Qmlhc0FkZA=="]}}, "dilations": {"list": {"i": ["1", "1", "1", "1"]}}, "padding": {"s": "U0FNRQ=="}, "num_args": {"i": "1"}, "T": {"type": "DT_FLOAT"}, "explicit_paddings": {"list": {}}, "data_format": {"s": "TkhXQw=="}, "strides": {"list": {"i": ["1", "1", "1", "1"]}}}}, {"name": "FeatureExtractor/MobilenetV3/expanded_conv_4/depthwise/hard_swish/mul", "op": "Mul", "input": ["FeatureExtractor/MobilenetV3/expanded_conv_4/depthwise/hard_swish/mul_1/y", "FeatureExtractor/MobilenetV3/expanded_conv_4/depthwise/depthwise"], "attr": {"T": {"type": "DT_FLOAT"}, "_grappler_ArithmeticOptimizer_MinimizeBroadcasts": {"b": true}}}, {"name": "FeatureExtractor/MobilenetV3/expanded_conv_4/depthwise/hard_swish/add", "op": "AddV2", "input": ["FeatureExtractor/MobilenetV3/expanded_conv_4/depthwise/depthwise", "FeatureExtractor/MobilenetV3/expanded_conv_4/depthwise/hard_swish/add/y"], "attr": {"T": {"type": "DT_FLOAT"}}}, {"name": "FeatureExtractor/MobilenetV3/expanded_conv_4/depthwise/hard_swish/Relu6", "op": "Relu6", "input": ["FeatureExtractor/MobilenetV3/expanded_conv_4/depthwise/hard_swish/add"], "attr": {"T": {"type": "DT_FLOAT"}}}, {"name": "FeatureExtractor/MobilenetV3/expanded_conv_4/depthwise/hard_swish/mul_1", "op": "Mul", "input": ["FeatureExtractor/MobilenetV3/expanded_conv_4/depthwise/hard_swish/mul", "FeatureExtractor/MobilenetV3/expanded_conv_4/depthwise/hard_swish/Relu6"], "attr": {"T": {"type": "DT_FLOAT"}, "_grappler_ArithmeticOptimizer_MinimizeBroadcasts": {"b": true}}}, {"name": "FeatureExtractor/MobilenetV3/expanded_conv_4/squeeze_excite/Mean", "op": "Mean", "input": ["FeatureExtractor/MobilenetV3/expanded_conv_4/depthwise/hard_swish/mul_1", "FeatureExtractor/MobilenetV3/expanded_conv_4/squeeze_excite/Mean/reduction_indices"], "attr": {"keep_dims": {"b": true}, "T": {"type": "DT_FLOAT"}, "Tidx": {"type": "DT_INT32"}}}, {"name": "FeatureExtractor/MobilenetV3/expanded_conv_4/squeeze_excite/Conv/Relu", "op": "_FusedConv2D", "input": ["FeatureExtractor/MobilenetV3/expanded_conv_4/squeeze_excite/Mean", "FeatureExtractor/MobilenetV3/expanded_conv_4/squeeze_excite/Conv/weights", "FeatureExtractor/MobilenetV3/expanded_conv_4/squeeze_excite/Conv/biases"], "device": "/device:CPU:0", "attr": {"num_args": {"i": "1"}, "use_cudnn_on_gpu": {"b": true}, "dilations": {"list": {"i": ["1", "1", "1", "1"]}}, "fused_ops": {"list": {"s": ["Qmlhc0FkZA==", "UmVsdQ=="]}}, "data_format": {"s": "TkhXQw=="}, "strides": {"list": {"i": ["1", "1", "1", "1"]}}, "T": {"type": "DT_FLOAT"}, "explicit_paddings": {"list": {}}, "padding": {"s": "U0FNRQ=="}, "epsilon": {"f": 0.0}}}, {"name": "FeatureExtractor/MobilenetV3/expanded_conv_4/squeeze_excite/Conv_1/BiasAdd", "op": "_FusedConv2D", "input": ["FeatureExtractor/MobilenetV3/expanded_conv_4/squeeze_excite/Conv/Relu", "FeatureExtractor/MobilenetV3/expanded_conv_4/squeeze_excite/Conv_1/weights", "FeatureExtractor/MobilenetV3/expanded_conv_4/squeeze_excite/Conv_1/biases"], "device": "/device:CPU:0", "attr": {"num_args": {"i": "1"}, "epsilon": {"f": 0.0}, "T": {"type": "DT_FLOAT"}, "padding": {"s": "U0FNRQ=="}, "strides": {"list": {"i": ["1", "1", "1", "1"]}}, "data_format": {"s": "TkhXQw=="}, "explicit_paddings": {"list": {}}, "dilations": {"list": {"i": ["1", "1", "1", "1"]}}, "use_cudnn_on_gpu": {"b": true}, "fused_ops": {"list": {"s": ["Qmlhc0FkZA=="]}}}}, {"name": "FeatureExtractor/MobilenetV3/expanded_conv_4/squeeze_excite/Conv_1/add", "op": "AddV2", "input": ["FeatureExtractor/MobilenetV3/expanded_conv_4/squeeze_excite/Conv_1/BiasAdd", "FeatureExtractor/MobilenetV3/expanded_conv_4/squeeze_excite/Conv_1/add/y"], "attr": {"T": {"type": "DT_FLOAT"}}}, {"name": "FeatureExtractor/MobilenetV3/expanded_conv_4/squeeze_excite/Conv_1/Relu6", "op": "Relu6", "input": ["FeatureExtractor/MobilenetV3/expanded_conv_4/squeeze_excite/Conv_1/add"], "attr": {"T": {"type": "DT_FLOAT"}}}, {"name": "FeatureExtractor/MobilenetV3/expanded_conv_4/squeeze_excite/Conv_1/mul", "op": "Mul", "input": ["FeatureExtractor/MobilenetV3/expanded_conv_4/squeeze_excite/Conv_1/mul/y", "FeatureExtractor/MobilenetV3/expanded_conv_4/squeeze_excite/Conv_1/Relu6"], "attr": {"T": {"type": "DT_FLOAT"}, "_grappler_ArithmeticOptimizer_MinimizeBroadcasts": {"b": true}}}, {"name": "FeatureExtractor/MobilenetV3/expanded_conv_4/squeeze_excite/mul", "op": "Mul", "input": ["FeatureExtractor/MobilenetV3/expanded_conv_4/squeeze_excite/Conv_1/mul", "FeatureExtractor/MobilenetV3/expanded_conv_4/depthwise/hard_swish/mul_1"], "attr": {"T": {"type": "DT_FLOAT"}, "_grappler_ArithmeticOptimizer_MinimizeBroadcasts": {"b": true}}}, {"name": "FeatureExtractor/MobilenetV3/expanded_conv_4/project/BatchNorm/FusedBatchNormV3", "op": "_FusedConv2D", "input": ["FeatureExtractor/MobilenetV3/expanded_conv_4/squeeze_excite/mul", "FeatureExtractor/MobilenetV3/expanded_conv_4/project/Conv2D_weights", "FeatureExtractor/MobilenetV3/expanded_conv_4/project/Conv2D_bn_offset"], "device": "/device:CPU:0", "attr": {"fused_ops": {"list": {"s": ["Qmlhc0FkZA=="]}}, "use_cudnn_on_gpu": {"b": true}, "dilations": {"list": {"i": ["1", "1", "1", "1"]}}, "padding": {"s": "U0FNRQ=="}, "epsilon": {"f": 0.0}, "data_format": {"s": "TkhXQw=="}, "explicit_paddings": {"list": {}}, "strides": {"list": {"i": ["1", "1", "1", "1"]}}, "T": {"type": "DT_FLOAT"}, "num_args": {"i": "1"}}}, {"name": "FeatureExtractor/MobilenetV3/expanded_conv_4/add", "op": "AddV2", "input": ["FeatureExtractor/MobilenetV3/expanded_conv_4/project/BatchNorm/FusedBatchNormV3", "FeatureExtractor/MobilenetV3/expanded_conv_3/project/BatchNorm/FusedBatchNormV3"], "attr": {"T": {"type": "DT_FLOAT"}}}, {"name": "FeatureExtractor/MobilenetV3/expanded_conv_5/expand/BatchNorm/FusedBatchNormV3", "op": "_FusedConv2D", "input": ["FeatureExtractor/MobilenetV3/expanded_conv_4/add", "FeatureExtractor/MobilenetV3/expanded_conv_5/expand/Conv2D_weights", "FeatureExtractor/MobilenetV3/expanded_conv_5/expand/Conv2D_bn_offset"], "device": "/device:CPU:0", "attr": {"use_cudnn_on_gpu": {"b": true}, "dilations": {"list": {"i": ["1", "1", "1", "1"]}}, "T": {"type": "DT_FLOAT"}, "padding": {"s": "U0FNRQ=="}, "explicit_paddings": {"list": {}}, "epsilon": {"f": 0.0}, "fused_ops": {"list": {"s": ["Qmlhc0FkZA=="]}}, "strides": {"list": {"i": ["1", "1", "1", "1"]}}, "data_format": {"s": "TkhXQw=="}, "num_args": {"i": "1"}}}, {"name": "FeatureExtractor/MobilenetV3/expanded_conv_5/expand/hard_swish/mul", "op": "Mul", "input": ["FeatureExtractor/MobilenetV3/expanded_conv_5/expand/hard_swish/mul_1/y", "FeatureExtractor/MobilenetV3/expanded_conv_5/expand/BatchNorm/FusedBatchNormV3"], "attr": {"_grappler_ArithmeticOptimizer_MinimizeBroadcasts": {"b": true}, "T": {"type": "DT_FLOAT"}}}, {"name": "FeatureExtractor/MobilenetV3/expanded_conv_5/expand/hard_swish/add", "op": "AddV2", "input": ["FeatureExtractor/MobilenetV3/expanded_conv_5/expand/BatchNorm/FusedBatchNormV3", "FeatureExtractor/MobilenetV3/expanded_conv_5/expand/hard_swish/add/y"], "attr": {"T": {"type": "DT_FLOAT"}}}, {"name": "FeatureExtractor/MobilenetV3/expanded_conv_5/expand/hard_swish/Relu6", "op": "Relu6", "input": ["FeatureExtractor/MobilenetV3/expanded_conv_5/expand/hard_swish/add"], "attr": {"T": {"type": "DT_FLOAT"}}}, {"name": "FeatureExtractor/MobilenetV3/expanded_conv_5/expand/hard_swish/mul_1", "op": "Mul", "input": ["FeatureExtractor/MobilenetV3/expanded_conv_5/expand/hard_swish/mul", "FeatureExtractor/MobilenetV3/expanded_conv_5/expand/hard_swish/Relu6"], "attr": {"_grappler_ArithmeticOptimizer_MinimizeBroadcasts": {"b": true}, "T": {"type": "DT_FLOAT"}}}, {"name": "FeatureExtractor/MobilenetV3/expanded_conv_5/depthwise/depthwise", "op": "FusedDepthwiseConv2dNative", "input": ["FeatureExtractor/MobilenetV3/expanded_conv_5/expand/hard_swish/mul_1", "FeatureExtractor/MobilenetV3/expanded_conv_5/depthwise/depthwise_weights", "FeatureExtractor/MobilenetV3/expanded_conv_5/depthwise/depthwise_bn_offset"], "attr": {"dilations": {"list": {"i": ["1", "1", "1", "1"]}}, "T": {"type": "DT_FLOAT"}, "strides": {"list": {"i": ["1", "1", "1", "1"]}}, "explicit_paddings": {"list": {}}, "padding": {"s": "U0FNRQ=="}, "fused_ops": {"list": {"s": ["Qmlhc0FkZA=="]}}, "num_args": {"i": "1"}, "data_format": {"s": "TkhXQw=="}}}, {"name": "FeatureExtractor/MobilenetV3/expanded_conv_5/depthwise/hard_swish/mul", "op": "Mul", "input": ["FeatureExtractor/MobilenetV3/expanded_conv_5/depthwise/hard_swish/mul_1/y", "FeatureExtractor/MobilenetV3/expanded_conv_5/depthwise/depthwise"], "attr": {"_grappler_ArithmeticOptimizer_MinimizeBroadcasts": {"b": true}, "T": {"type": "DT_FLOAT"}}}, {"name": "FeatureExtractor/MobilenetV3/expanded_conv_5/depthwise/hard_swish/add", "op": "AddV2", "input": ["FeatureExtractor/MobilenetV3/expanded_conv_5/depthwise/depthwise", "FeatureExtractor/MobilenetV3/expanded_conv_5/depthwise/hard_swish/add/y"], "attr": {"T": {"type": "DT_FLOAT"}}}, {"name": "FeatureExtractor/MobilenetV3/expanded_conv_5/depthwise/hard_swish/Relu6", "op": "Relu6", "input": ["FeatureExtractor/MobilenetV3/expanded_conv_5/depthwise/hard_swish/add"], "attr": {"T": {"type": "DT_FLOAT"}}}, {"name": "FeatureExtractor/MobilenetV3/expanded_conv_5/depthwise/hard_swish/mul_1", "op": "Mul", "input": ["FeatureExtractor/MobilenetV3/expanded_conv_5/depthwise/hard_swish/mul", "FeatureExtractor/MobilenetV3/expanded_conv_5/depthwise/hard_swish/Relu6"], "attr": {"T": {"type": "DT_FLOAT"}, "_grappler_ArithmeticOptimizer_MinimizeBroadcasts": {"b": true}}}, {"name": "FeatureExtractor/MobilenetV3/expanded_conv_5/squeeze_excite/Mean", "op": "Mean", "input": ["FeatureExtractor/MobilenetV3/expanded_conv_5/depthwise/hard_swish/mul_1", "FeatureExtractor/MobilenetV3/expanded_conv_5/squeeze_excite/Mean/reduction_indices"], "attr": {"T": {"type": "DT_FLOAT"}, "Tidx": {"type": "DT_INT32"}, "keep_dims": {"b": true}}}, {"name": "FeatureExtractor/MobilenetV3/expanded_conv_5/squeeze_excite/Conv/Relu", "op": "_FusedConv2D", "input": ["FeatureExtractor/MobilenetV3/expanded_conv_5/squeeze_excite/Mean", "FeatureExtractor/MobilenetV3/expanded_conv_5/squeeze_excite/Conv/weights", "FeatureExtractor/MobilenetV3/expanded_conv_5/squeeze_excite/Conv/biases"], "device": "/device:CPU:0", "attr": {"T": {"type": "DT_FLOAT"}, "dilations": {"list": {"i": ["1", "1", "1", "1"]}}, "padding": {"s": "U0FNRQ=="}, "epsilon": {"f": 0.0}, "data_format": {"s": "TkhXQw=="}, "fused_ops": {"list": {"s": ["Qmlhc0FkZA==", "UmVsdQ=="]}}, "explicit_paddings": {"list": {}}, "num_args": {"i": "1"}, "use_cudnn_on_gpu": {"b": true}, "strides": {"list": {"i": ["1", "1", "1", "1"]}}}}, {"name": "FeatureExtractor/MobilenetV3/expanded_conv_5/squeeze_excite/Conv_1/BiasAdd", "op": "_FusedConv2D", "input": ["FeatureExtractor/MobilenetV3/expanded_conv_5/squeeze_excite/Conv/Relu", "FeatureExtractor/MobilenetV3/expanded_conv_5/squeeze_excite/Conv_1/weights", "FeatureExtractor/MobilenetV3/expanded_conv_5/squeeze_excite/Conv_1/biases"], "device": "/device:CPU:0", "attr": {"strides": {"list": {"i": ["1", "1", "1", "1"]}}, "num_args": {"i": "1"}, "T": {"type": "DT_FLOAT"}, "padding": {"s": "U0FNRQ=="}, "explicit_paddings": {"list": {}}, "dilations": {"list": {"i": ["1", "1", "1", "1"]}}, "epsilon": {"f": 0.0}, "fused_ops": {"list": {"s": ["Qmlhc0FkZA=="]}}, "data_format": {"s": "TkhXQw=="}, "use_cudnn_on_gpu": {"b": true}}}, {"name": "FeatureExtractor/MobilenetV3/expanded_conv_5/squeeze_excite/Conv_1/add", "op": "AddV2", "input": ["FeatureExtractor/MobilenetV3/expanded_conv_5/squeeze_excite/Conv_1/BiasAdd", "FeatureExtractor/MobilenetV3/expanded_conv_5/squeeze_excite/Conv_1/add/y"], "attr": {"T": {"type": "DT_FLOAT"}}}, {"name": "FeatureExtractor/MobilenetV3/expanded_conv_5/squeeze_excite/Conv_1/Relu6", "op": "Relu6", "input": ["FeatureExtractor/MobilenetV3/expanded_conv_5/squeeze_excite/Conv_1/add"], "attr": {"T": {"type": "DT_FLOAT"}}}, {"name": "FeatureExtractor/MobilenetV3/expanded_conv_5/squeeze_excite/Conv_1/mul", "op": "Mul", "input": ["FeatureExtractor/MobilenetV3/expanded_conv_5/squeeze_excite/Conv_1/mul/y", "FeatureExtractor/MobilenetV3/expanded_conv_5/squeeze_excite/Conv_1/Relu6"], "attr": {"_grappler_ArithmeticOptimizer_MinimizeBroadcasts": {"b": true}, "T": {"type": "DT_FLOAT"}}}, {"name": "FeatureExtractor/MobilenetV3/expanded_conv_5/squeeze_excite/mul", "op": "Mul", "input": ["FeatureExtractor/MobilenetV3/expanded_conv_5/squeeze_excite/Conv_1/mul", "FeatureExtractor/MobilenetV3/expanded_conv_5/depthwise/hard_swish/mul_1"], "attr": {"_grappler_ArithmeticOptimizer_MinimizeBroadcasts": {"b": true}, "T": {"type": "DT_FLOAT"}}}, {"name": "FeatureExtractor/MobilenetV3/expanded_conv_5/project/BatchNorm/FusedBatchNormV3", "op": "_FusedConv2D", "input": ["FeatureExtractor/MobilenetV3/expanded_conv_5/squeeze_excite/mul", "FeatureExtractor/MobilenetV3/expanded_conv_5/project/Conv2D_weights", "FeatureExtractor/MobilenetV3/expanded_conv_5/project/Conv2D_bn_offset"], "device": "/device:CPU:0", "attr": {"dilations": {"list": {"i": ["1", "1", "1", "1"]}}, "strides": {"list": {"i": ["1", "1", "1", "1"]}}, "T": {"type": "DT_FLOAT"}, "epsilon": {"f": 0.0}, "data_format": {"s": "TkhXQw=="}, "num_args": {"i": "1"}, "explicit_paddings": {"list": {}}, "use_cudnn_on_gpu": {"b": true}, "padding": {"s": "U0FNRQ=="}, "fused_ops": {"list": {"s": ["Qmlhc0FkZA=="]}}}}, {"name": "FeatureExtractor/MobilenetV3/expanded_conv_5/add", "op": "AddV2", "input": ["FeatureExtractor/MobilenetV3/expanded_conv_5/project/BatchNorm/FusedBatchNormV3", "FeatureExtractor/MobilenetV3/expanded_conv_4/add"], "attr": {"T": {"type": "DT_FLOAT"}}}, {"name": "FeatureExtractor/MobilenetV3/expanded_conv_6/expand/BatchNorm/FusedBatchNormV3", "op": "_FusedConv2D", "input": ["FeatureExtractor/MobilenetV3/expanded_conv_5/add", "FeatureExtractor/MobilenetV3/expanded_conv_6/expand/Conv2D_weights", "FeatureExtractor/MobilenetV3/expanded_conv_6/expand/Conv2D_bn_offset"], "device": "/device:CPU:0", "attr": {"strides": {"list": {"i": ["1", "1", "1", "1"]}}, "num_args": {"i": "1"}, "T": {"type": "DT_FLOAT"}, "use_cudnn_on_gpu": {"b": true}, "explicit_paddings": {"list": {}}, "dilations": {"list": {"i": ["1", "1", "1", "1"]}}, "epsilon": {"f": 0.0}, "padding": {"s": "U0FNRQ=="}, "data_format": {"s": "TkhXQw=="}, "fused_ops": {"list": {"s": ["Qmlhc0FkZA=="]}}}}, {"name": "FeatureExtractor/MobilenetV3/expanded_conv_6/expand/hard_swish/mul", "op": "Mul", "input": ["FeatureExtractor/MobilenetV3/expanded_conv_6/expand/hard_swish/mul_1/y", "FeatureExtractor/MobilenetV3/expanded_conv_6/expand/BatchNorm/FusedBatchNormV3"], "attr": {"_grappler_ArithmeticOptimizer_MinimizeBroadcasts": {"b": true}, "T": {"type": "DT_FLOAT"}}}, {"name": "FeatureExtractor/MobilenetV3/expanded_conv_6/expand/hard_swish/add", "op": "AddV2", "input": ["FeatureExtractor/MobilenetV3/expanded_conv_6/expand/BatchNorm/FusedBatchNormV3", "FeatureExtractor/MobilenetV3/expanded_conv_6/expand/hard_swish/add/y"], "attr": {"T": {"type": "DT_FLOAT"}}}, {"name": "FeatureExtractor/MobilenetV3/expanded_conv_6/expand/hard_swish/Relu6", "op": "Relu6", "input": ["FeatureExtractor/MobilenetV3/expanded_conv_6/expand/hard_swish/add"], "attr": {"T": {"type": "DT_FLOAT"}}}, {"name": "FeatureExtractor/MobilenetV3/expanded_conv_6/expand/hard_swish/mul_1", "op": "Mul", "input": ["FeatureExtractor/MobilenetV3/expanded_conv_6/expand/hard_swish/mul", "FeatureExtractor/MobilenetV3/expanded_conv_6/expand/hard_swish/Relu6"], "attr": {"_grappler_ArithmeticOptimizer_MinimizeBroadcasts": {"b": true}, "T": {"type": "DT_FLOAT"}}}, {"name": "FeatureExtractor/MobilenetV3/expanded_conv_6/depthwise/depthwise", "op": "FusedDepthwiseConv2dNative", "input": ["FeatureExtractor/MobilenetV3/expanded_conv_6/expand/hard_swish/mul_1", "FeatureExtractor/MobilenetV3/expanded_conv_6/depthwise/depthwise_weights", "FeatureExtractor/MobilenetV3/expanded_conv_6/depthwise/depthwise_bn_offset"], "attr": {"fused_ops": {"list": {"s": ["Qmlhc0FkZA=="]}}, "T": {"type": "DT_FLOAT"}, "explicit_paddings": {"list": {}}, "strides": {"list": {"i": ["1", "1", "1", "1"]}}, "num_args": {"i": "1"}, "dilations": {"list": {"i": ["1", "1", "1", "1"]}}, "data_format": {"s": "TkhXQw=="}, "padding": {"s": "U0FNRQ=="}}}, {"name": "FeatureExtractor/MobilenetV3/expanded_conv_6/depthwise/hard_swish/mul", "op": "Mul", "input": ["FeatureExtractor/MobilenetV3/expanded_conv_6/depthwise/hard_swish/mul_1/y", "FeatureExtractor/MobilenetV3/expanded_conv_6/depthwise/depthwise"], "attr": {"_grappler_ArithmeticOptimizer_MinimizeBroadcasts": {"b": true}, "T": {"type": "DT_FLOAT"}}}, {"name": "FeatureExtractor/MobilenetV3/expanded_conv_6/depthwise/hard_swish/add", "op": "AddV2", "input": ["FeatureExtractor/MobilenetV3/expanded_conv_6/depthwise/depthwise", "FeatureExtractor/MobilenetV3/expanded_conv_6/depthwise/hard_swish/add/y"], "attr": {"T": {"type": "DT_FLOAT"}}}, {"name": "FeatureExtractor/MobilenetV3/expanded_conv_6/depthwise/hard_swish/Relu6", "op": "Relu6", "input": ["FeatureExtractor/MobilenetV3/expanded_conv_6/depthwise/hard_swish/add"], "attr": {"T": {"type": "DT_FLOAT"}}}, {"name": "FeatureExtractor/MobilenetV3/expanded_conv_6/depthwise/hard_swish/mul_1", "op": "Mul", "input": ["FeatureExtractor/MobilenetV3/expanded_conv_6/depthwise/hard_swish/mul", "FeatureExtractor/MobilenetV3/expanded_conv_6/depthwise/hard_swish/Relu6"], "attr": {"T": {"type": "DT_FLOAT"}, "_grappler_ArithmeticOptimizer_MinimizeBroadcasts": {"b": true}}}, {"name": "FeatureExtractor/MobilenetV3/expanded_conv_6/squeeze_excite/Mean", "op": "Mean", "input": ["FeatureExtractor/MobilenetV3/expanded_conv_6/depthwise/hard_swish/mul_1", "FeatureExtractor/MobilenetV3/expanded_conv_6/squeeze_excite/Mean/reduction_indices"], "attr": {"Tidx": {"type": "DT_INT32"}, "keep_dims": {"b": true}, "T": {"type": "DT_FLOAT"}}}, {"name": "FeatureExtractor/MobilenetV3/expanded_conv_6/squeeze_excite/Conv/Relu", "op": "_FusedConv2D", "input": ["FeatureExtractor/MobilenetV3/expanded_conv_6/squeeze_excite/Mean", "FeatureExtractor/MobilenetV3/expanded_conv_6/squeeze_excite/Conv/weights", "FeatureExtractor/MobilenetV3/expanded_conv_6/squeeze_excite/Conv/biases"], "device": "/device:CPU:0", "attr": {"data_format": {"s": "TkhXQw=="}, "explicit_paddings": {"list": {}}, "padding": {"s": "U0FNRQ=="}, "num_args": {"i": "1"}, "use_cudnn_on_gpu": {"b": true}, "strides": {"list": {"i": ["1", "1", "1", "1"]}}, "fused_ops": {"list": {"s": ["Qmlhc0FkZA==", "UmVsdQ=="]}}, "epsilon": {"f": 0.0}, "T": {"type": "DT_FLOAT"}, "dilations": {"list": {"i": ["1", "1", "1", "1"]}}}}, {"name": "FeatureExtractor/MobilenetV3/expanded_conv_6/squeeze_excite/Conv_1/BiasAdd", "op": "_FusedConv2D", "input": ["FeatureExtractor/MobilenetV3/expanded_conv_6/squeeze_excite/Conv/Relu", "FeatureExtractor/MobilenetV3/expanded_conv_6/squeeze_excite/Conv_1/weights", "FeatureExtractor/MobilenetV3/expanded_conv_6/squeeze_excite/Conv_1/biases"], "device": "/device:CPU:0", "attr": {"fused_ops": {"list": {"s": ["Qmlhc0FkZA=="]}}, "dilations": {"list": {"i": ["1", "1", "1", "1"]}}, "T": {"type": "DT_FLOAT"}, "explicit_paddings": {"list": {}}, "num_args": {"i": "1"}, "padding": {"s": "U0FNRQ=="}, "strides": {"list": {"i": ["1", "1", "1", "1"]}}, "epsilon": {"f": 0.0}, "data_format": {"s": "TkhXQw=="}, "use_cudnn_on_gpu": {"b": true}}}, {"name": "FeatureExtractor/MobilenetV3/expanded_conv_6/squeeze_excite/Conv_1/add", "op": "AddV2", "input": ["FeatureExtractor/MobilenetV3/expanded_conv_6/squeeze_excite/Conv_1/BiasAdd", "FeatureExtractor/MobilenetV3/expanded_conv_6/squeeze_excite/Conv_1/add/y"], "attr": {"T": {"type": "DT_FLOAT"}}}, {"name": "FeatureExtractor/MobilenetV3/expanded_conv_6/squeeze_excite/Conv_1/Relu6", "op": "Relu6", "input": ["FeatureExtractor/MobilenetV3/expanded_conv_6/squeeze_excite/Conv_1/add"], "attr": {"T": {"type": "DT_FLOAT"}}}, {"name": "FeatureExtractor/MobilenetV3/expanded_conv_6/squeeze_excite/Conv_1/mul", "op": "Mul", "input": ["FeatureExtractor/MobilenetV3/expanded_conv_6/squeeze_excite/Conv_1/mul/y", "FeatureExtractor/MobilenetV3/expanded_conv_6/squeeze_excite/Conv_1/Relu6"], "attr": {"T": {"type": "DT_FLOAT"}, "_grappler_ArithmeticOptimizer_MinimizeBroadcasts": {"b": true}}}, {"name": "FeatureExtractor/MobilenetV3/expanded_conv_6/squeeze_excite/mul", "op": "Mul", "input": ["FeatureExtractor/MobilenetV3/expanded_conv_6/squeeze_excite/Conv_1/mul", "FeatureExtractor/MobilenetV3/expanded_conv_6/depthwise/hard_swish/mul_1"], "attr": {"_grappler_ArithmeticOptimizer_MinimizeBroadcasts": {"b": true}, "T": {"type": "DT_FLOAT"}}}, {"name": "FeatureExtractor/MobilenetV3/expanded_conv_6/project/BatchNorm/FusedBatchNormV3", "op": "_FusedConv2D", "input": ["FeatureExtractor/MobilenetV3/expanded_conv_6/squeeze_excite/mul", "FeatureExtractor/MobilenetV3/expanded_conv_6/project/Conv2D_weights", "FeatureExtractor/MobilenetV3/expanded_conv_6/project/Conv2D_bn_offset"], "device": "/device:CPU:0", "attr": {"data_format": {"s": "TkhXQw=="}, "explicit_paddings": {"list": {}}, "use_cudnn_on_gpu": {"b": true}, "T": {"type": "DT_FLOAT"}, "padding": {"s": "U0FNRQ=="}, "num_args": {"i": "1"}, "dilations": {"list": {"i": ["1", "1", "1", "1"]}}, "fused_ops": {"list": {"s": ["Qmlhc0FkZA=="]}}, "epsilon": {"f": 0.0}, "strides": {"list": {"i": ["1", "1", "1", "1"]}}}}, {"name": "FeatureExtractor/MobilenetV3/expanded_conv_7/expand/BatchNorm/FusedBatchNormV3", "op": "_FusedConv2D", "input": ["FeatureExtractor/MobilenetV3/expanded_conv_6/project/BatchNorm/FusedBatchNormV3", "FeatureExtractor/MobilenetV3/expanded_conv_7/expand/Conv2D_weights", "FeatureExtractor/MobilenetV3/expanded_conv_7/expand/Conv2D_bn_offset"], "device": "/device:CPU:0", "attr": {"dilations": {"list": {"i": ["1", "1", "1", "1"]}}, "T": {"type": "DT_FLOAT"}, "num_args": {"i": "1"}, "strides": {"list": {"i": ["1", "1", "1", "1"]}}, "data_format": {"s": "TkhXQw=="}, "explicit_paddings": {"list": {}}, "epsilon": {"f": 0.0}, "padding": {"s": "U0FNRQ=="}, "fused_ops": {"list": {"s": ["Qmlhc0FkZA=="]}}, "use_cudnn_on_gpu": {"b": true}}}, {"name": "FeatureExtractor/MobilenetV3/expanded_conv_7/expand/hard_swish/mul", "op": "Mul", "input": ["FeatureExtractor/MobilenetV3/expanded_conv_7/expand/hard_swish/mul_1/y", "FeatureExtractor/MobilenetV3/expanded_conv_7/expand/BatchNorm/FusedBatchNormV3"], "attr": {"_grappler_ArithmeticOptimizer_MinimizeBroadcasts": {"b": true}, "T": {"type": "DT_FLOAT"}}}, {"name": "FeatureExtractor/MobilenetV3/expanded_conv_7/expand/hard_swish/add", "op": "AddV2", "input": ["FeatureExtractor/MobilenetV3/expanded_conv_7/expand/BatchNorm/FusedBatchNormV3", "FeatureExtractor/MobilenetV3/expanded_conv_7/expand/hard_swish/add/y"], "attr": {"T": {"type": "DT_FLOAT"}}}, {"name": "FeatureExtractor/MobilenetV3/expanded_conv_7/expand/hard_swish/Relu6", "op": "Relu6", "input": ["FeatureExtractor/MobilenetV3/expanded_conv_7/expand/hard_swish/add"], "attr": {"T": {"type": "DT_FLOAT"}}}, {"name": "FeatureExtractor/MobilenetV3/expanded_conv_7/expand/hard_swish/mul_1", "op": "Mul", "input": ["FeatureExtractor/MobilenetV3/expanded_conv_7/expand/hard_swish/mul", "FeatureExtractor/MobilenetV3/expanded_conv_7/expand/hard_swish/Relu6"], "attr": {"_grappler_ArithmeticOptimizer_MinimizeBroadcasts": {"b": true}, "T": {"type": "DT_FLOAT"}}}, {"name": "FeatureExtractor/MobilenetV3/expanded_conv_7/depthwise/depthwise", "op": "FusedDepthwiseConv2dNative", "input": ["FeatureExtractor/MobilenetV3/expanded_conv_7/expand/hard_swish/mul_1", "FeatureExtractor/MobilenetV3/expanded_conv_7/depthwise/depthwise_weights", "FeatureExtractor/MobilenetV3/expanded_conv_7/depthwise/depthwise_bn_offset"], "attr": {"fused_ops": {"list": {"s": ["Qmlhc0FkZA=="]}}, "num_args": {"i": "1"}, "padding": {"s": "U0FNRQ=="}, "data_format": {"s": "TkhXQw=="}, "explicit_paddings": {"list": {}}, "dilations": {"list": {"i": ["1", "1", "1", "1"]}}, "T": {"type": "DT_FLOAT"}, "strides": {"list": {"i": ["1", "1", "1", "1"]}}}}, {"name": "FeatureExtractor/MobilenetV3/expanded_conv_7/depthwise/hard_swish/mul", "op": "Mul", "input": ["FeatureExtractor/MobilenetV3/expanded_conv_7/depthwise/hard_swish/mul_1/y", "FeatureExtractor/MobilenetV3/expanded_conv_7/depthwise/depthwise"], "attr": {"_grappler_ArithmeticOptimizer_MinimizeBroadcasts": {"b": true}, "T": {"type": "DT_FLOAT"}}}, {"name": "FeatureExtractor/MobilenetV3/expanded_conv_7/depthwise/hard_swish/add", "op": "AddV2", "input": ["FeatureExtractor/MobilenetV3/expanded_conv_7/depthwise/depthwise", "FeatureExtractor/MobilenetV3/expanded_conv_7/depthwise/hard_swish/add/y"], "attr": {"T": {"type": "DT_FLOAT"}}}, {"name": "FeatureExtractor/MobilenetV3/expanded_conv_7/depthwise/hard_swish/Relu6", "op": "Relu6", "input": ["FeatureExtractor/MobilenetV3/expanded_conv_7/depthwise/hard_swish/add"], "attr": {"T": {"type": "DT_FLOAT"}}}, {"name": "FeatureExtractor/MobilenetV3/expanded_conv_7/depthwise/hard_swish/mul_1", "op": "Mul", "input": ["FeatureExtractor/MobilenetV3/expanded_conv_7/depthwise/hard_swish/mul", "FeatureExtractor/MobilenetV3/expanded_conv_7/depthwise/hard_swish/Relu6"], "attr": {"T": {"type": "DT_FLOAT"}, "_grappler_ArithmeticOptimizer_MinimizeBroadcasts": {"b": true}}}, {"name": "FeatureExtractor/MobilenetV3/expanded_conv_7/squeeze_excite/Mean", "op": "Mean", "input": ["FeatureExtractor/MobilenetV3/expanded_conv_7/depthwise/hard_swish/mul_1", "FeatureExtractor/MobilenetV3/expanded_conv_7/squeeze_excite/Mean/reduction_indices"], "attr": {"T": {"type": "DT_FLOAT"}, "Tidx": {"type": "DT_INT32"}, "keep_dims": {"b": true}}}, {"name": "FeatureExtractor/MobilenetV3/expanded_conv_7/squeeze_excite/Conv/Relu", "op": "_FusedConv2D", "input": ["FeatureExtractor/MobilenetV3/expanded_conv_7/squeeze_excite/Mean", "FeatureExtractor/MobilenetV3/expanded_conv_7/squeeze_excite/Conv/weights", "FeatureExtractor/MobilenetV3/expanded_conv_7/squeeze_excite/Conv/biases"], "device": "/device:CPU:0", "attr": {"epsilon": {"f": 0.0}, "strides": {"list": {"i": ["1", "1", "1", "1"]}}, "padding": {"s": "U0FNRQ=="}, "fused_ops": {"list": {"s": ["Qmlhc0FkZA==", "UmVsdQ=="]}}, "num_args": {"i": "1"}, "use_cudnn_on_gpu": {"b": true}, "dilations": {"list": {"i": ["1", "1", "1", "1"]}}, "data_format": {"s": "TkhXQw=="}, "T": {"type": "DT_FLOAT"}, "explicit_paddings": {"list": {}}}}, {"name": "FeatureExtractor/MobilenetV3/expanded_conv_7/squeeze_excite/Conv_1/BiasAdd", "op": "_FusedConv2D", "input": ["FeatureExtractor/MobilenetV3/expanded_conv_7/squeeze_excite/Conv/Relu", "FeatureExtractor/MobilenetV3/expanded_conv_7/squeeze_excite/Conv_1/weights", "FeatureExtractor/MobilenetV3/expanded_conv_7/squeeze_excite/Conv_1/biases"], "device": "/device:CPU:0", "attr": {"data_format": {"s": "TkhXQw=="}, "strides": {"list": {"i": ["1", "1", "1", "1"]}}, "explicit_paddings": {"list": {}}, "num_args": {"i": "1"}, "epsilon": {"f": 0.0}, "use_cudnn_on_gpu": {"b": true}, "padding": {"s": "U0FNRQ=="}, "dilations": {"list": {"i": ["1", "1", "1", "1"]}}, "fused_ops": {"list": {"s": ["Qmlhc0FkZA=="]}}, "T": {"type": "DT_FLOAT"}}}, {"name": "FeatureExtractor/MobilenetV3/expanded_conv_7/squeeze_excite/Conv_1/add", "op": "AddV2", "input": ["FeatureExtractor/MobilenetV3/expanded_conv_7/squeeze_excite/Conv_1/BiasAdd", "FeatureExtractor/MobilenetV3/expanded_conv_7/squeeze_excite/Conv_1/add/y"], "attr": {"T": {"type": "DT_FLOAT"}}}, {"name": "FeatureExtractor/MobilenetV3/expanded_conv_7/squeeze_excite/Conv_1/Relu6", "op": "Relu6", "input": ["FeatureExtractor/MobilenetV3/expanded_conv_7/squeeze_excite/Conv_1/add"], "attr": {"T": {"type": "DT_FLOAT"}}}, {"name": "FeatureExtractor/MobilenetV3/expanded_conv_7/squeeze_excite/Conv_1/mul", "op": "Mul", "input": ["FeatureExtractor/MobilenetV3/expanded_conv_7/squeeze_excite/Conv_1/mul/y", "FeatureExtractor/MobilenetV3/expanded_conv_7/squeeze_excite/Conv_1/Relu6"], "attr": {"T": {"type": "DT_FLOAT"}, "_grappler_ArithmeticOptimizer_MinimizeBroadcasts": {"b": true}}}, {"name": "FeatureExtractor/MobilenetV3/expanded_conv_7/squeeze_excite/mul", "op": "Mul", "input": ["FeatureExtractor/MobilenetV3/expanded_conv_7/squeeze_excite/Conv_1/mul", "FeatureExtractor/MobilenetV3/expanded_conv_7/depthwise/hard_swish/mul_1"], "attr": {"_grappler_ArithmeticOptimizer_MinimizeBroadcasts": {"b": true}, "T": {"type": "DT_FLOAT"}}}, {"name": "FeatureExtractor/MobilenetV3/expanded_conv_7/project/BatchNorm/FusedBatchNormV3", "op": "_FusedConv2D", "input": ["FeatureExtractor/MobilenetV3/expanded_conv_7/squeeze_excite/mul", "FeatureExtractor/MobilenetV3/expanded_conv_7/project/Conv2D_weights", "FeatureExtractor/MobilenetV3/expanded_conv_7/project/Conv2D_bn_offset"], "device": "/device:CPU:0", "attr": {"data_format": {"s": "TkhXQw=="}, "epsilon": {"f": 0.0}, "fused_ops": {"list": {"s": ["Qmlhc0FkZA=="]}}, "use_cudnn_on_gpu": {"b": true}, "T": {"type": "DT_FLOAT"}, "dilations": {"list": {"i": ["1", "1", "1", "1"]}}, "strides": {"list": {"i": ["1", "1", "1", "1"]}}, "explicit_paddings": {"list": {}}, "num_args": {"i": "1"}, "padding": {"s": "U0FNRQ=="}}}, {"name": "FeatureExtractor/MobilenetV3/expanded_conv_7/add", "op": "AddV2", "input": ["FeatureExtractor/MobilenetV3/expanded_conv_7/project/BatchNorm/FusedBatchNormV3", "FeatureExtractor/MobilenetV3/expanded_conv_6/project/BatchNorm/FusedBatchNormV3"], "attr": {"T": {"type": "DT_FLOAT"}}}, {"name": "FeatureExtractor/MobilenetV3/expanded_conv_8/expand/BatchNorm/FusedBatchNormV3", "op": "_FusedConv2D", "input": ["FeatureExtractor/MobilenetV3/expanded_conv_7/add", "FeatureExtractor/MobilenetV3/expanded_conv_8/expand/Conv2D_weights", "FeatureExtractor/MobilenetV3/expanded_conv_8/expand/Conv2D_bn_offset"], "device": "/device:CPU:0", "attr": {"padding": {"s": "U0FNRQ=="}, "strides": {"list": {"i": ["1", "1", "1", "1"]}}, "dilations": {"list": {"i": ["1", "1", "1", "1"]}}, "T": {"type": "DT_FLOAT"}, "num_args": {"i": "1"}, "fused_ops": {"list": {"s": ["Qmlhc0FkZA=="]}}, "use_cudnn_on_gpu": {"b": true}, "explicit_paddings": {"list": {}}, "epsilon": {"f": 0.0}, "data_format": {"s": "TkhXQw=="}}}, {"name": "FeatureExtractor/MobilenetV3/expanded_conv_8/expand/hard_swish/mul", "op": "Mul", "input": ["FeatureExtractor/MobilenetV3/expanded_conv_8/expand/hard_swish/mul_1/y", "FeatureExtractor/MobilenetV3/expanded_conv_8/expand/BatchNorm/FusedBatchNormV3"], "attr": {"_grappler_ArithmeticOptimizer_MinimizeBroadcasts": {"b": true}, "T": {"type": "DT_FLOAT"}}}, {"name": "FeatureExtractor/MobilenetV3/expanded_conv_8/expand/hard_swish/add", "op": "AddV2", "input": ["FeatureExtractor/MobilenetV3/expanded_conv_8/expand/BatchNorm/FusedBatchNormV3", "FeatureExtractor/MobilenetV3/expanded_conv_8/expand/hard_swish/add/y"], "attr": {"T": {"type": "DT_FLOAT"}}}, {"name": "FeatureExtractor/MobilenetV3/expanded_conv_8/expand/hard_swish/Relu6", "op": "Relu6", "input": ["FeatureExtractor/MobilenetV3/expanded_conv_8/expand/hard_swish/add"], "attr": {"T": {"type": "DT_FLOAT"}}}, {"name": "FeatureExtractor/MobilenetV3/expanded_conv_8/expand/hard_swish/mul_1", "op": "Mul", "input": ["FeatureExtractor/MobilenetV3/expanded_conv_8/expand/hard_swish/mul", "FeatureExtractor/MobilenetV3/expanded_conv_8/expand/hard_swish/Relu6"], "attr": {"T": {"type": "DT_FLOAT"}, "_grappler_ArithmeticOptimizer_MinimizeBroadcasts": {"b": true}}}, {"name": "BoxPredictor_0/Shape", "op": "Shape", "input": ["FeatureExtractor/MobilenetV3/expanded_conv_8/expand/hard_swish/mul_1"], "attr": {"T": {"type": "DT_FLOAT"}, "out_type": {"type": "DT_INT32"}}}, {"name": "BoxPredictor_0/Shape_1", "op": "Shape", "input": ["FeatureExtractor/MobilenetV3/expanded_conv_8/expand/hard_swish/mul_1"], "attr": {"T": {"type": "DT_FLOAT"}, "out_type": {"type": "DT_INT32"}}}, {"name": "BoxPredictor_0/BoxEncodingPredictor_depthwise/depthwise", "op": "FusedDepthwiseConv2dNative", "input": ["FeatureExtractor/MobilenetV3/expanded_conv_8/expand/hard_swish/mul_1", "BoxPredictor_0/BoxEncodingPredictor_depthwise/depthwise_weights", "BoxPredictor_0/BoxEncodingPredictor_depthwise/depthwise_bn_offset"], "attr": {"padding": {"s": "U0FNRQ=="}, "num_args": {"i": "1"}, "T": {"type": "DT_FLOAT"}, "strides": {"list": {"i": ["1", "1", "1", "1"]}}, "explicit_paddings": {"list": {}}, "fused_ops": {"list": {"s": ["Qmlhc0FkZA==", "UmVsdTY="]}}, "data_format": {"s": "TkhXQw=="}, "dilations": {"list": {"i": ["1", "1", "1", "1"]}}}}, {"name": "BoxPredictor_0/ClassPredictor_depthwise/depthwise", "op": "FusedDepthwiseConv2dNative", "input": ["FeatureExtractor/MobilenetV3/expanded_conv_8/expand/hard_swish/mul_1", "BoxPredictor_0/ClassPredictor_depthwise/depthwise_weights", "BoxPredictor_0/ClassPredictor_depthwise/depthwise_bn_offset"], "attr": {"explicit_paddings": {"list": {}}, "data_format": {"s": "TkhXQw=="}, "fused_ops": {"list": {"s": ["Qmlhc0FkZA==", "UmVsdTY="]}}, "T": {"type": "DT_FLOAT"}, "padding": {"s": "U0FNRQ=="}, "strides": {"list": {"i": ["1", "1", "1", "1"]}}, "dilations": {"list": {"i": ["1", "1", "1", "1"]}}, "num_args": {"i": "1"}}}, {"name": "FeatureExtractor/MobilenetV3/expanded_conv_8/depthwise/depthwise", "op": "FusedDepthwiseConv2dNative", "input": ["FeatureExtractor/MobilenetV3/expanded_conv_8/expand/hard_swish/mul_1", "FeatureExtractor/MobilenetV3/expanded_conv_8/depthwise/depthwise_weights", "FeatureExtractor/MobilenetV3/expanded_conv_8/depthwise/depthwise_bn_offset"], "attr": {"num_args": {"i": "1"}, "padding": {"s": "U0FNRQ=="}, "explicit_paddings": {"list": {}}, "strides": {"list": {"i": ["1", "2", "2", "1"]}}, "data_format": {"s": "TkhXQw=="}, "fused_ops": {"list": {"s": ["Qmlhc0FkZA=="]}}, "dilations": {"list": {"i": ["1", "1", "1", "1"]}}, "T": {"type": "DT_FLOAT"}}}, {"name": "BoxPredictor_0/strided_slice", "op": "StridedSlice", "input": ["BoxPredictor_0/Shape", "BoxPredictor_0/strided_slice/stack", "BoxPredictor_0/strided_slice/stack_1", "BoxPredictor_0/strided_slice/stack_2"], "attr": {"end_mask": {"i": "0"}, "T": {"type": "DT_INT32"}, "shrink_axis_mask": {"i": "1"}, "begin_mask": {"i": "0"}, "Index": {"type": "DT_INT32"}, "ellipsis_mask": {"i": "0"}, "new_axis_mask": {"i": "0"}}}, {"name": "BoxPredictor_0/strided_slice_1", "op": "StridedSlice", "input": ["BoxPredictor_0/Shape_1", "BoxPredictor_0/strided_slice_1/stack", "BoxPredictor_0/strided_slice_1/stack_1", "BoxPredictor_0/strided_slice_1/stack_2"], "attr": {"ellipsis_mask": {"i": "0"}, "begin_mask": {"i": "0"}, "Index": {"type": "DT_INT32"}, "end_mask": {"i": "0"}, "shrink_axis_mask": {"i": "1"}, "T": {"type": "DT_INT32"}, "new_axis_mask": {"i": "0"}}}, {"name": "BoxPredictor_0/Reshape/shape", "op": "Pack", "input": ["BoxPredictor_0/strided_slice", "BoxPredictor_0/Reshape/shape/1", "BoxPredictor_0/Reshape/shape/2", "BoxPredictor_0/Reshape/shape/3"], "attr": {"N": {"i": "4"}, "axis": {"i": "0"}, "T": {"type": "DT_INT32"}}}, {"name": "BoxPredictor_0/Reshape_1/shape", "op": "Pack", "input": ["BoxPredictor_0/strided_slice_1", "BoxPredictor_0/Reshape_1/shape/1", "BoxPredictor_0/Reshape_1/shape/2"], "attr": {"axis": {"i": "0"}, "T": {"type": "DT_INT32"}, "N": {"i": "3"}}}, {"name": "FeatureExtractor/MobilenetV3/expanded_conv_8/depthwise/hard_swish/mul", "op": "Mul", "input": ["FeatureExtractor/MobilenetV3/expanded_conv_8/depthwise/hard_swish/mul_1/y", "FeatureExtractor/MobilenetV3/expanded_conv_8/depthwise/depthwise"], "attr": {"_grappler_ArithmeticOptimizer_MinimizeBroadcasts": {"b": true}, "T": {"type": "DT_FLOAT"}}}, {"name": "FeatureExtractor/MobilenetV3/expanded_conv_8/depthwise/hard_swish/add", "op": "AddV2", "input": ["FeatureExtractor/MobilenetV3/expanded_conv_8/depthwise/depthwise", "FeatureExtractor/MobilenetV3/expanded_conv_8/depthwise/hard_swish/add/y"], "attr": {"T": {"type": "DT_FLOAT"}}}, {"name": "BoxPredictor_0/BoxEncodingPredictor/BiasAdd", "op": "_FusedConv2D", "input": ["BoxPredictor_0/BoxEncodingPredictor_depthwise/depthwise", "BoxPredictor_0/BoxEncodingPredictor/weights", "BoxPredictor_0/BoxEncodingPredictor/biases"], "device": "/device:CPU:0", "attr": {"padding": {"s": "U0FNRQ=="}, "data_format": {"s": "TkhXQw=="}, "num_args": {"i": "1"}, "fused_ops": {"list": {"s": ["Qmlhc0FkZA=="]}}, "explicit_paddings": {"list": {}}, "strides": {"list": {"i": ["1", "1", "1", "1"]}}, "use_cudnn_on_gpu": {"b": true}, "epsilon": {"f": 0.0}, "dilations": {"list": {"i": ["1", "1", "1", "1"]}}, "T": {"type": "DT_FLOAT"}}}, {"name": "BoxPredictor_0/ClassPredictor/BiasAdd", "op": "_FusedConv2D", "input": ["BoxPredictor_0/ClassPredictor_depthwise/depthwise", "BoxPredictor_0/ClassPredictor/weights", "BoxPredictor_0/ClassPredictor/biases"], "device": "/device:CPU:0", "attr": {"T": {"type": "DT_FLOAT"}, "dilations": {"list": {"i": ["1", "1", "1", "1"]}}, "fused_ops": {"list": {"s": ["Qmlhc0FkZA=="]}}, "epsilon": {"f": 0.0}, "explicit_paddings": {"list": {}}, "use_cudnn_on_gpu": {"b": true}, "data_format": {"s": "TkhXQw=="}, "strides": {"list": {"i": ["1", "1", "1", "1"]}}, "num_args": {"i": "1"}, "padding": {"s": "U0FNRQ=="}}}, {"name": "FeatureExtractor/MobilenetV3/expanded_conv_8/depthwise/hard_swish/Relu6", "op": "Relu6", "input": ["FeatureExtractor/MobilenetV3/expanded_conv_8/depthwise/hard_swish/add"], "attr": {"T": {"type": "DT_FLOAT"}}}, {"name": "BoxPredictor_0/Reshape", "op": "Reshape", "input": ["BoxPredictor_0/BoxEncodingPredictor/BiasAdd", "BoxPredictor_0/Reshape/shape"], "attr": {"Tshape": {"type": "DT_INT32"}, "T": {"type": "DT_FLOAT"}}}, {"name": "BoxPredictor_0/Reshape_1", "op": "Reshape", "input": ["BoxPredictor_0/ClassPredictor/BiasAdd", "BoxPredictor_0/Reshape_1/shape"], "attr": {"T": {"type": "DT_FLOAT"}, "Tshape": {"type": "DT_INT32"}}}, {"name": "FeatureExtractor/MobilenetV3/expanded_conv_8/depthwise/hard_swish/mul_1", "op": "Mul", "input": ["FeatureExtractor/MobilenetV3/expanded_conv_8/depthwise/hard_swish/mul", "FeatureExtractor/MobilenetV3/expanded_conv_8/depthwise/hard_swish/Relu6"], "attr": {"_grappler_ArithmeticOptimizer_MinimizeBroadcasts": {"b": true}, "T": {"type": "DT_FLOAT"}}}, {"name": "FeatureExtractor/MobilenetV3/expanded_conv_8/squeeze_excite/Mean", "op": "Mean", "input": ["FeatureExtractor/MobilenetV3/expanded_conv_8/depthwise/hard_swish/mul_1", "FeatureExtractor/MobilenetV3/expanded_conv_8/squeeze_excite/Mean/reduction_indices"], "attr": {"Tidx": {"type": "DT_INT32"}, "T": {"type": "DT_FLOAT"}, "keep_dims": {"b": true}}}, {"name": "FeatureExtractor/MobilenetV3/expanded_conv_8/squeeze_excite/Conv/Relu", "op": "_FusedConv2D", "input": ["FeatureExtractor/MobilenetV3/expanded_conv_8/squeeze_excite/Mean", "FeatureExtractor/MobilenetV3/expanded_conv_8/squeeze_excite/Conv/weights", "FeatureExtractor/MobilenetV3/expanded_conv_8/squeeze_excite/Conv/biases"], "device": "/device:CPU:0", "attr": {"explicit_paddings": {"list": {}}, "T": {"type": "DT_FLOAT"}, "dilations": {"list": {"i": ["1", "1", "1", "1"]}}, "use_cudnn_on_gpu": {"b": true}, "fused_ops": {"list": {"s": ["Qmlhc0FkZA==", "UmVsdQ=="]}}, "data_format": {"s": "TkhXQw=="}, "strides": {"list": {"i": ["1", "1", "1", "1"]}}, "num_args": {"i": "1"}, "epsilon": {"f": 0.0}, "padding": {"s": "U0FNRQ=="}}}, {"name": "FeatureExtractor/MobilenetV3/expanded_conv_8/squeeze_excite/Conv_1/BiasAdd", "op": "_FusedConv2D", "input": ["FeatureExtractor/MobilenetV3/expanded_conv_8/squeeze_excite/Conv/Relu", "FeatureExtractor/MobilenetV3/expanded_conv_8/squeeze_excite/Conv_1/weights", "FeatureExtractor/MobilenetV3/expanded_conv_8/squeeze_excite/Conv_1/biases"], "device": "/device:CPU:0", "attr": {"fused_ops": {"list": {"s": ["Qmlhc0FkZA=="]}}, "epsilon": {"f": 0.0}, "explicit_paddings": {"list": {}}, "use_cudnn_on_gpu": {"b": true}, "T": {"type": "DT_FLOAT"}, "data_format": {"s": "TkhXQw=="}, "dilations": {"list": {"i": ["1", "1", "1", "1"]}}, "num_args": {"i": "1"}, "strides": {"list": {"i": ["1", "1", "1", "1"]}}, "padding": {"s": "U0FNRQ=="}}}, {"name": "FeatureExtractor/MobilenetV3/expanded_conv_8/squeeze_excite/Conv_1/add", "op": "AddV2", "input": ["FeatureExtractor/MobilenetV3/expanded_conv_8/squeeze_excite/Conv_1/BiasAdd", "FeatureExtractor/MobilenetV3/expanded_conv_8/squeeze_excite/Conv_1/add/y"], "attr": {"T": {"type": "DT_FLOAT"}}}, {"name": "FeatureExtractor/MobilenetV3/expanded_conv_8/squeeze_excite/Conv_1/Relu6", "op": "Relu6", "input": ["FeatureExtractor/MobilenetV3/expanded_conv_8/squeeze_excite/Conv_1/add"], "attr": {"T": {"type": "DT_FLOAT"}}}, {"name": "FeatureExtractor/MobilenetV3/expanded_conv_8/squeeze_excite/Conv_1/mul", "op": "Mul", "input": ["FeatureExtractor/MobilenetV3/expanded_conv_8/squeeze_excite/Conv_1/mul/y", "FeatureExtractor/MobilenetV3/expanded_conv_8/squeeze_excite/Conv_1/Relu6"], "attr": {"T": {"type": "DT_FLOAT"}, "_grappler_ArithmeticOptimizer_MinimizeBroadcasts": {"b": true}}}, {"name": "FeatureExtractor/MobilenetV3/expanded_conv_8/squeeze_excite/mul", "op": "Mul", "input": ["FeatureExtractor/MobilenetV3/expanded_conv_8/squeeze_excite/Conv_1/mul", "FeatureExtractor/MobilenetV3/expanded_conv_8/depthwise/hard_swish/mul_1"], "attr": {"_grappler_ArithmeticOptimizer_MinimizeBroadcasts": {"b": true}, "T": {"type": "DT_FLOAT"}}}, {"name": "FeatureExtractor/MobilenetV3/expanded_conv_8/project/BatchNorm/FusedBatchNormV3", "op": "_FusedConv2D", "input": ["FeatureExtractor/MobilenetV3/expanded_conv_8/squeeze_excite/mul", "FeatureExtractor/MobilenetV3/expanded_conv_8/project/Conv2D_weights", "FeatureExtractor/MobilenetV3/expanded_conv_8/project/Conv2D_bn_offset"], "device": "/device:CPU:0", "attr": {"T": {"type": "DT_FLOAT"}, "data_format": {"s": "TkhXQw=="}, "explicit_paddings": {"list": {}}, "dilations": {"list": {"i": ["1", "1", "1", "1"]}}, "padding": {"s": "U0FNRQ=="}, "num_args": {"i": "1"}, "strides": {"list": {"i": ["1", "1", "1", "1"]}}, "fused_ops": {"list": {"s": ["Qmlhc0FkZA=="]}}, "epsilon": {"f": 0.0}, "use_cudnn_on_gpu": {"b": true}}}, {"name": "FeatureExtractor/MobilenetV3/expanded_conv_9/expand/BatchNorm/FusedBatchNormV3", "op": "_FusedConv2D", "input": ["FeatureExtractor/MobilenetV3/expanded_conv_8/project/BatchNorm/FusedBatchNormV3", "FeatureExtractor/MobilenetV3/expanded_conv_9/expand/Conv2D_weights", "FeatureExtractor/MobilenetV3/expanded_conv_9/expand/Conv2D_bn_offset"], "device": "/device:CPU:0", "attr": {"fused_ops": {"list": {"s": ["Qmlhc0FkZA=="]}}, "padding": {"s": "U…
413635e-05, "original_dtype": "float32"}}, {"name": "FeatureExtractor/MobilenetV3/expanded_conv_9/squeeze_excite/Conv/biases", "shape": [72], "dtype": "float32", "quantization": {"dtype": "uint16", "min": -0.031225479055234987, "scale": 6.53116064740326e-06, "original_dtype": "float32"}}, {"name": "FeatureExtractor/MobilenetV3/expanded_conv_9/squeeze_excite/Conv_1/weights", "shape": [1, 1, 72, 288], "dtype": "float32", "quantization": {"dtype": "uint16", "min": -0.408524261433536, "scale": 1.0669215498394776e-05, "original_dtype": "float32"}}, {"name": "FeatureExtractor/MobilenetV3/expanded_conv_9/squeeze_excite/Conv_1/biases", "shape": [288], "dtype": "float32", "quantization": {"dtype": "uint16", "min": -1.1933204974372917, "scale": 2.691963494410638e-05, "original_dtype": "float32"}}, {"name": "FeatureExtractor/MobilenetV3/expanded_conv_9/squeeze_excite/Conv_1/add/y", "shape": [], "dtype": "float32", "quantization": {"dtype": "uint16", "min": 3.0, "scale": 1.0, "original_dtype": "float32"}}, {"name": "FeatureExtractor/MobilenetV3/expanded_conv_9/depthwise/hard_swish/mul_1/y", "shape": [], "dtype": "float32", "quantization": {"dtype": "uint16", "min": 0.1666666716337204, "scale": 1.0, "original_dtype": "float32"}}, {"name": "FeatureExtractor/MobilenetV3/expanded_conv_9/expand/hard_swish/mul_1/y", "shape": [], "dtype": "float32", "quantization": {"dtype": "uint16", "min": 0.1666666716337204, "scale": 1.0, "original_dtype": "float32"}}, {"name": "FeatureExtractor/MobilenetV3/expanded_conv_9/expand/hard_swish/add/y", "shape": [], "dtype": "float32", "quantization": {"dtype": "uint16", "min": 3.0, "scale": 1.0, "original_dtype": "float32"}}, {"name": "FeatureExtractor/MobilenetV3/expanded_conv_9/depthwise/hard_swish/add/y", "shape": [], "dtype": "float32", "quantization": {"dtype": "uint16", "min": 3.0, "scale": 1.0, "original_dtype": "float32"}}, {"name": "FeatureExtractor/MobilenetV3/expanded_conv_8/squeeze_excite/Conv_1/mul/y", "shape": [], "dtype": "float32", "quantization": {"dtype": "uint16", "min": 0.16666999459266663, "scale": 1.0, "original_dtype": "float32"}}, {"name": "FeatureExtractor/MobilenetV3/expanded_conv_8/squeeze_excite/Mean/reduction_indices", "shape": [2], "dtype": "int32"}, {"name": "FeatureExtractor/MobilenetV3/expanded_conv_8/squeeze_excite/Conv/weights", "shape": [1, 1, 288, 72], "dtype": "float32", "quantization": {"dtype": "uint16", "min": -0.1905102854218137, "scale": 9.729840930633999e-06, "original_dtype": "float32"}}, {"name": "FeatureExtractor/MobilenetV3/expanded_conv_8/squeeze_excite/Conv/biases", "shape": [72], "dtype": "float32", "quantization": {"dtype": "uint16", "min": -0.10836329874516153, "scale": 4.902207588561933e-06, "original_dtype": "float32"}}, {"name": "FeatureExtractor/MobilenetV3/expanded_conv_8/squeeze_excite/Conv_1/weights", "shape": [1, 1, 72, 288], "dtype": "float32", "quantization": {"dtype": "uint16", "min": -0.47574863088224634, "scale": 1.3429363486768089e-05, "original_dtype": "float32"}}, {"name": "FeatureExtractor/MobilenetV3/expanded_conv_8/squeeze_excite/Conv_1/biases", "shape": [288], "dtype": "float32", "quantization": {"dtype": "uint16", "min": -0.8328843359599044, "scale": 2.4547136338340832e-05, "original_dtype": "float32"}}, {"name": "FeatureExtractor/MobilenetV3/expanded_conv_8/squeeze_excite/Conv_1/add/y", "shape": [], "dtype": "float32", "quantization": {"dtype": "uint16", "min": 3.0, "scale": 1.0, "original_dtype": "float32"}}, {"name": "FeatureExtractor/MobilenetV3/expanded_conv_8/depthwise/hard_swish/mul_1/y", "shape": [], "dtype": "float32", "quantization": {"dtype": "uint16", "min": 0.1666666716337204, "scale": 1.0, "original_dtype": "float32"}}, {"name": "FeatureExtractor/MobilenetV3/expanded_conv_8/expand/hard_swish/mul_1/y", "shape": [], "dtype": "float32", "quantization": {"dtype": "uint16", "min": 0.1666666716337204, "scale": 1.0, "original_dtype": "float32"}}, {"name": "FeatureExtractor/MobilenetV3/expanded_conv_7/squeeze_excite/Conv_1/mul/y", "shape": [], "dtype": "float32", "quantization": {"dtype": "uint16", "min": 0.16666999459266663, "scale": 1.0, "original_dtype": "float32"}}, {"name": "FeatureExtractor/MobilenetV3/expanded_conv_7/squeeze_excite/Mean/reduction_indices", "shape": [2], "dtype": "int32"}, {"name": "FeatureExtractor/MobilenetV3/expanded_conv_7/squeeze_excite/Conv/weights", "shape": [1, 1, 144, 40], "dtype": "float32", "quantization": {"dtype": "uint16", "min": -0.931907926595683, "scale": 2.9588135845684628e-05, "original_dtype": "float32"}}, {"name": "FeatureExtractor/MobilenetV3/expanded_conv_7/squeeze_excite/Conv/biases", "shape": [40], "dtype": "float32", "quantization": {"dtype": "uint16", "min": -0.37345921842640994, "scale": 2.3585904915145253e-05, "original_dtype": "float32"}}, {"name": "FeatureExtractor/MobilenetV3/expanded_conv_7/squeeze_excite/Conv_1/weights", "shape": [1, 1, 40, 144], "dtype": "float32", "quantization": {"dtype": "uint16", "min": -1.0009859163337127, "scale": 2.6415419758634945e-05, "original_dtype": "float32"}}, {"name": "FeatureExtractor/MobilenetV3/expanded_conv_7/squeeze_excite/Conv_1/biases", "shape": [144], "dtype": "float32", "quantization": {"dtype": "uint16", "min": -1.452909804882097, "scale": 3.4757776246551445e-05, "original_dtype": "float32"}}, {"name": "FeatureExtractor/MobilenetV3/expanded_conv_7/squeeze_excite/Conv_1/add/y", "shape": [], "dtype": "float32", "quantization": {"dtype": "uint16", "min": 3.0, "scale": 1.0, "original_dtype": "float32"}}, {"name": "FeatureExtractor/MobilenetV3/expanded_conv_7/depthwise/hard_swish/mul_1/y", "shape": [], "dtype": "float32", "quantization": {"dtype": "uint16", "min": 0.1666666716337204, "scale": 1.0, "original_dtype": "float32"}}, {"name": "FeatureExtractor/MobilenetV3/expanded_conv_7/expand/hard_swish/mul_1/y", "shape": [], "dtype": "float32", "quantization": {"dtype": "uint16", "min": 0.1666666716337204, "scale": 1.0, "original_dtype": "float32"}}, {"name": "FeatureExtractor/MobilenetV3/expanded_conv_7/expand/hard_swish/add/y", "shape": [], "dtype": "float32", "quantization": {"dtype": "uint16", "min": 3.0, "scale": 1.0, "original_dtype": "float32"}}, {"name": "FeatureExtractor/MobilenetV3/expanded_conv_7/depthwise/hard_swish/add/y", "shape": [], "dtype": "float32", "quantization": {"dtype": "uint16", "min": 3.0, "scale": 1.0, "original_dtype": "float32"}}, {"name": "FeatureExtractor/MobilenetV3/expanded_conv_6/squeeze_excite/Conv_1/mul/y", "shape": [], "dtype": "float32", "quantization": {"dtype": "uint16", "min": 0.16666999459266663, "scale": 1.0, "original_dtype": "float32"}}, {"name": "FeatureExtractor/MobilenetV3/expanded_conv_6/squeeze_excite/Mean/reduction_indices", "shape": [2], "dtype": "int32"}, {"name": "FeatureExtractor/MobilenetV3/expanded_conv_6/squeeze_excite/Conv/weights", "shape": [1, 1, 120, 32], "dtype": "float32", "quantization": {"dtype": "uint16", "min": -0.04592314009795775, "scale": 8.0609338420147e-06, "original_dtype": "float32"}}, {"name": "FeatureExtractor/MobilenetV3/expanded_conv_6/squeeze_excite/Conv/biases", "shape": [32], "dtype": "float32", "quantization": {"dtype": "uint16", "min": -1.5939196219922314, "scale": 3.790444036984213e-05, "original_dtype": "float32"}}, {"name": "FeatureExtractor/MobilenetV3/expanded_conv_6/squeeze_excite/Conv_1/weights", "shape": [1, 1, 32, 120], "dtype": "float32", "quantization": {"dtype": "uint16", "min": -0.057098213436856934, "scale": 5.271253086859023e-06, "original_dtype": "float32"}}, {"name": "FeatureExtractor/MobilenetV3/expanded_conv_6/squeeze_excite/Conv_1/biases", "shape": [120], "dtype": "float32", "quantization": {"dtype": "uint16", "min": -0.701117189775263, "scale": 2.8249211885058344e-05, "original_dtype": "float32"}}, {"name": "FeatureExtractor/MobilenetV3/expanded_conv_6/squeeze_excite/Conv_1/add/y", "shape": [], "dtype": "float32", "quantization": {"dtype": "uint16", "min": 3.0, "scale": 1.0, "original_dtype": "float32"}}, {"name": "FeatureExtractor/MobilenetV3/expanded_conv_6/depthwise/hard_swish/mul_1/y", "shape": [], "dtype": "float32", "quantization": {"dtype": "uint16", "min": 0.1666666716337204, "scale": 1.0, "original_dtype": "float32"}}, {"name": "FeatureExtractor/MobilenetV3/expanded_conv_6/expand/hard_swish/mul_1/y", "shape": [], "dtype": "float32", "quantization": {"dtype": "uint16", "min": 0.1666666716337204, "scale": 1.0, "original_dtype": "float32"}}, {"name": "FeatureExtractor/MobilenetV3/expanded_conv_5/squeeze_excite/Conv_1/mul/y", "shape": [], "dtype": "float32", "quantization": {"dtype": "uint16", "min": 0.16666999459266663, "scale": 1.0, "original_dtype": "float32"}}, {"name": "FeatureExtractor/MobilenetV3/expanded_conv_5/squeeze_excite/Mean/reduction_indices", "shape": [2], "dtype": "int32"}, {"name": "FeatureExtractor/MobilenetV3/expanded_conv_5/squeeze_excite/Conv/weights", "shape": [1, 1, 240, 64], "dtype": "float32", "quantization": {"dtype": "uint16", "min": -0.27108843426432644, "scale": 1.020049797803757e-05, "original_dtype": "float32"}}, {"name": "FeatureExtractor/MobilenetV3/expanded_conv_5/squeeze_excite/Conv/biases", "shape": [64], "dtype": "float32", "quantization": {"dtype": "uint16", "min": -0.09160417466775916, "scale": 1.5161233807970732e-05, "original_dtype": "float32"}}, {"name": "FeatureExtractor/MobilenetV3/expanded_conv_5/squeeze_excite/Conv_1/weights", "shape": [1, 1, 64, 240], "dtype": "float32", "quantization": {"dtype": "uint16", "min": -0.30643448977400545, "scale": 8.820035396310205e-06, "original_dtype": "float32"}}, {"name": "FeatureExtractor/MobilenetV3/expanded_conv_5/squeeze_excite/Conv_1/biases", "shape": [240], "dtype": "float32", "quantization": {"dtype": "uint16", "min": -0.7056859449280874, "scale": 2.123449417531031e-05, "original_dtype": "float32"}}, {"name": "FeatureExtractor/MobilenetV3/expanded_conv_5/squeeze_excite/Conv_1/add/y", "shape": [], "dtype": "float32", "quantization": {"dtype": "uint16", "min": 3.0, "scale": 1.0, "original_dtype": "float32"}}, {"name": "FeatureExtractor/MobilenetV3/expanded_conv_5/depthwise/hard_swish/mul_1/y", "shape": [], "dtype": "float32", "quantization": {"dtype": "uint16", "min": 0.1666666716337204, "scale": 1.0, "original_dtype": "float32"}}, {"name": "FeatureExtractor/MobilenetV3/expanded_conv_5/expand/hard_swish/mul_1/y", "shape": [], "dtype": "float32", "quantization": {"dtype": "uint16", "min": 0.1666666716337204, "scale": 1.0, "original_dtype": "float32"}}, {"name": "FeatureExtractor/MobilenetV3/expanded_conv_5/expand/hard_swish/add/y", "shape": [], "dtype": "float32", "quantization": {"dtype": "uint16", "min": 3.0, "scale": 1.0, "original_dtype": "float32"}}, {"name": "FeatureExtractor/MobilenetV3/expanded_conv_5/depthwise/hard_swish/add/y", "shape": [], "dtype": "float32", "quantization": {"dtype": "uint16", "min": 3.0, "scale": 1.0, "original_dtype": "float32"}}, {"name": "FeatureExtractor/MobilenetV3/expanded_conv_4/squeeze_excite/Conv_1/mul/y", "shape": [], "dtype": "float32", "quantization": {"dtype": "uint16", "min": 0.16666999459266663, "scale": 1.0, "original_dtype": "float32"}}, {"name": "FeatureExtractor/MobilenetV3/expanded_conv_4/squeeze_excite/Mean/reduction_indices", "shape": [2], "dtype": "int32"}, {"name": "FeatureExtractor/MobilenetV3/expanded_conv_4/squeeze_excite/Conv/weights", "shape": [1, 1, 240, 64], "dtype": "float32", "quantization": {"dtype": "uint16", "min": -0.11955930466606712, "scale": 4.3138843466017365e-06, "original_dtype": "float32"}}, {"name": "FeatureExtractor/MobilenetV3/expanded_conv_4/squeeze_excite/Conv/biases", "shape": [64], "dtype": "float32", "quantization": {"dtype": "uint16", "min": -0.9378758255937165, "scale": 2.3080492816382835e-05, "original_dtype": "float32"}}, {"name": "FeatureExtractor/MobilenetV3/expanded_conv_4/squeeze_excite/Conv_1/weights", "shape": [1, 1, 64, 240], "dtype": "float32", "quantization": {"dtype": "uint16", "min": -0.10938773287796015, "scale": 4.167945623088594e-06, "original_dtype": "float32"}}, {"name": "FeatureExtractor/MobilenetV3/expanded_conv_4/squeeze_excite/Conv_1/biases", "shape": [240], "dtype": "float32", "quantization": {"dtype": "uint16", "min": -0.4605867921910424, "scale": 2.8343802596371842e-05, "original_dtype": "float32"}}, {"name": "FeatureExtractor/MobilenetV3/expanded_conv_4/squeeze_excite/Conv_1/add/y", "shape": [], "dtype": "float32", "quantization": {"dtype": "uint16", "min": 3.0, "scale": 1.0, "original_dtype": "float32"}}, {"name": "FeatureExtractor/MobilenetV3/expanded_conv_4/depthwise/hard_swish/mul_1/y", "shape": [], "dtype": "float32", "quantization": {"dtype": "uint16", "min": 0.1666666716337204, "scale": 1.0, "original_dtype": "float32"}}, {"name": "FeatureExtractor/MobilenetV3/expanded_conv_4/expand/hard_swish/mul_1/y", "shape": [], "dtype": "float32", "quantization": {"dtype": "uint16", "min": 0.1666666716337204, "scale": 1.0, "original_dtype": "float32"}}, {"name": "FeatureExtractor/MobilenetV3/expanded_conv_4/expand/hard_swish/add/y", "shape": [], "dtype": "float32", "quantization": {"dtype": "uint16", "min": 3.0, "scale": 1.0, "original_dtype": "float32"}}, {"name": "FeatureExtractor/MobilenetV3/expanded_conv_4/depthwise/hard_swish/add/y", "shape": [], "dtype": "float32", "quantization": {"dtype": "uint16", "min": 3.0, "scale": 1.0, "original_dtype": "float32"}}, {"name": "FeatureExtractor/MobilenetV3/expanded_conv_3/squeeze_excite/Conv_1/mul/y", "shape": [], "dtype": "float32", "quantization": {"dtype": "uint16", "min": 0.16666999459266663, "scale": 1.0, "original_dtype": "float32"}}, {"name": "FeatureExtractor/MobilenetV3/expanded_conv_3/squeeze_excite/Mean/reduction_indices", "shape": [2], "dtype": "int32"}, {"name": "FeatureExtractor/MobilenetV3/expanded_conv_3/squeeze_excite/Conv/weights", "shape": [1, 1, 96, 24], "dtype": "float32", "quantization": {"dtype": "uint16", "min": -0.051024738729268396, "scale": 4.416961455095948e-06, "original_dtype": "float32"}}, {"name": "FeatureExtractor/MobilenetV3/expanded_conv_3/squeeze_excite/Conv/biases", "shape": [24], "dtype": "float32", "quantization": {"dtype": "uint16", "min": -1.7945398778548691, "scale": 4.677300487019754e-05, "original_dtype": "float32"}}, {"name": "FeatureExtractor/MobilenetV3/expanded_conv_3/squeeze_excite/Conv_1/weights", "shape": [1, 1, 24, 96], "dtype": "float32", "quantization": {"dtype": "uint16", "min": -0.06530738729761022, "scale": 3.278154166128412e-06, "original_dtype": "float32"}}, {"name": "FeatureExtractor/MobilenetV3/expanded_conv_3/squeeze_excite/Conv_1/biases", "shape": [96], "dtype": "float32", "quantization": {"dtype": "uint16", "min": -0.6831855583583826, "scale": 4.868768232314585e-05, "original_dtype": "float32"}}, {"name": "FeatureExtractor/MobilenetV3/expanded_conv_3/squeeze_excite/Conv_1/add/y", "shape": [], "dtype": "float32", "quantization": {"dtype": "uint16", "min": 3.0, "scale": 1.0, "original_dtype": "float32"}}, {"name": "FeatureExtractor/MobilenetV3/expanded_conv_3/depthwise/hard_swish/mul_1/y", "shape": [], "dtype": "float32", "quantization": {"dtype": "uint16", "min": 0.1666666716337204, "scale": 1.0, "original_dtype": "float32"}}, {"name": "FeatureExtractor/MobilenetV3/expanded_conv_3/expand/hard_swish/mul_1/y", "shape": [], "dtype": "float32", "quantization": {"dtype": "uint16", "min": 0.1666666716337204, "scale": 1.0, "original_dtype": "float32"}}, {"name": "FeatureExtractor/MobilenetV3/expanded_conv/squeeze_excite/Conv_1/mul/y", "shape": [], "dtype": "float32", "quantization": {"dtype": "uint16", "min": 0.16666999459266663, "scale": 1.0, "original_dtype": "float32"}}, {"name": "FeatureExtractor/MobilenetV3/expanded_conv/squeeze_excite/Mean/reduction_indices", "shape": [2], "dtype": "int32"}, {"name": "FeatureExtractor/MobilenetV3/expanded_conv/squeeze_excite/Conv/weights", "shape": [1, 1, 16, 8], "dtype": "float32", "quantization": {"dtype": "uint16", "min": -0.9017620960534861, "scale": 3.0279778921241264e-05, "original_dtype": "float32"}}, {"name": "FeatureExtractor/MobilenetV3/expanded_conv/squeeze_excite/Conv/biases", "shape": [8], "dtype": "float32", "quantization": {"dtype": "uint16", "min": -0.14779635197539492, "scale": 3.950717775338009e-05, "original_dtype": "float32"}}, {"name": "FeatureExtractor/MobilenetV3/expanded_conv/squeeze_excite/Conv_1/weights", "shape": [1, 1, 8, 16], "dtype": "float32", "quantization": {"dtype": "uint16", "min": -1.142717700909493, "scale": 2.0169759084096605e-05, "original_dtype": "float32"}}, {"name": "FeatureExtractor/MobilenetV3/expanded_conv/squeeze_excite/Conv_1/biases", "shape": [16], "dtype": "float32", "quantization": {"dtype": "uint16", "min": -11.758717215123944, "scale": 0.0002207339305649217, "original_dtype": "float32"}}, {"name": "FeatureExtractor/MobilenetV3/expanded_conv/squeeze_excite/Conv_1/add/y", "shape": [], "dtype": "float32", "quantization": {"dtype": "uint16", "min": 3.0, "scale": 1.0, "original_dtype": "float32"}}, {"name": "FeatureExtractor/MobilenetV3/Conv/hard_swish/mul_1/y", "shape": [], "dtype": "float32", "quantization": {"dtype": "uint16", "min": 0.1666666716337204, "scale": 1.0, "original_dtype": "float32"}}, {"name": "Preprocessor/map/TensorArrayStack/range/start", "shape": [], "dtype": "int32"}, {"name": "Preprocessor/map/TensorArrayStack/range/delta", "shape": [], "dtype": "int32"}, {"name": "Preprocessor/map/TensorArrayUnstack/range/start", "shape": [], "dtype": "int32"}, {"name": "Preprocessor/map/TensorArrayUnstack/strided_slice/stack", "shape": [1], "dtype": "int32"}, {"name": "Preprocessor/map/TensorArrayUnstack/strided_slice/stack_1", "shape": [1], "dtype": "int32"}, {"name": "Preprocessor/map/TensorArrayUnstack/strided_slice/stack_2", "shape": [1], "dtype": "int32"}, {"name": "Preprocessor/map/TensorArrayUnstack/range/delta", "shape": [], "dtype": "int32"}, {"name": "Preprocessor/map/Const", "shape": [], "dtype": "int32"}, {"name": "Preprocessor/map/while/iteration_counter", "shape": [], "dtype": "int32"}, {"name": "Preprocessor/mul/x", "shape": [], "dtype": "float32", "quantization": {"dtype": "uint16", "min": 0.007843137718737125, "scale": 1.0, "original_dtype": "float32"}}, {"name": "Preprocessor/sub/y", "shape": [], "dtype": "float32", "quantization": {"dtype": "uint16", "min": 1.0, "scale": 1.0, "original_dtype": "float32"}}, {"name": "Preprocessor/map/strided_slice/stack", "shape": [1], "dtype": "int32"}, {"name": "Preprocessor/map/strided_slice/stack_1", "shape": [1], "dtype": "int32"}, {"name": "Preprocessor/map/strided_slice/stack_2", "shape": [1], "dtype": "int32"}, {"name": "FeatureExtractor/MobilenetV3/Conv/hard_swish/add/y", "shape": [], "dtype": "float32", "quantization": {"dtype": "uint16", "min": 3.0, "scale": 1.0, "original_dtype": "float32"}}, {"name": "FeatureExtractor/MobilenetV3/expanded_conv_3/expand/hard_swish/add/y", "shape": [], "dtype": "float32", "quantization": {"dtype": "uint16", "min": 3.0, "scale": 1.0, "original_dtype": "float32"}}, {"name": "FeatureExtractor/MobilenetV3/expanded_conv_3/depthwise/hard_swish/add/y", "shape": [], "dtype": "float32", "quantization": {"dtype": "uint16", "min": 3.0, "scale": 1.0, "original_dtype": "float32"}}, {"name": "FeatureExtractor/MobilenetV3/expanded_conv_6/expand/hard_swish/add/y", "shape": [], "dtype": "float32", "quantization": {"dtype": "uint16", "min": 3.0, "scale": 1.0, "original_dtype": "float32"}}, {"name": "FeatureExtractor/MobilenetV3/expanded_conv_6/depthwise/hard_swish/add/y", "shape": [], "dtype": "float32", "quantization": {"dtype": "uint16", "min": 3.0, "scale": 1.0, "original_dtype": "float32"}}, {"name": "FeatureExtractor/MobilenetV3/expanded_conv_8/expand/hard_swish/add/y", "shape": [], "dtype": "float32", "quantization": {"dtype": "uint16", "min": 3.0, "scale": 1.0, "original_dtype": "float32"}}, {"name": "FeatureExtractor/MobilenetV3/expanded_conv_8/depthwise/hard_swish/add/y", "shape": [], "dtype": "float32", "quantization": {"dtype": "uint16", "min": 3.0, "scale": 1.0, "original_dtype": "float32"}}, {"name": "FeatureExtractor/MobilenetV3/Conv_1/hard_swish/add/y", "shape": [], "dtype": "float32", "quantization": {"dtype": "uint16", "min": 3.0, "scale": 1.0, "original_dtype": "float32"}}, {"name": "BoxPredictor_5/strided_slice_1/stack", "shape": [1], "dtype": "int32"}, {"name": "BoxPredictor_5/strided_slice_1/stack_1", "shape": [1], "dtype": "int32"}, {"name": "BoxPredictor_5/strided_slice_1/stack_2", "shape": [1], "dtype": "int32"}, {"name": "BoxPredictor_5/Reshape_1/shape/1", "shape": [], "dtype": "int32"}, {"name": "BoxPredictor_5/Reshape_1/shape/2", "shape": [], "dtype": "int32"}, {"name": "concat_1/axis", "shape": [], "dtype": "int32"}, {"name": "Postprocessor/Slice/begin", "shape": [3], "dtype": "int32"}, {"name": "Postprocessor/Slice/size", "shape": [3], "dtype": "int32"}, {"name": "FeatureExtractor/MobilenetV3/Conv/Conv2D_weights", "shape": [3, 3, 3, 16], "dtype": "float32", "quantization": {"dtype": "uint16", "min": -12.862783658430816, "scale": 0.0002350182466688132, "original_dtype": "float32"}}, {"name": "FeatureExtractor/MobilenetV3/Conv/Conv2D_bn_offset", "shape": [16], "dtype": "float32", "quantization": {"dtype": "uint16", "min": -11.7214573708899, "scale": 0.0005390662882123758, "original_dtype": "float32"}}, {"name": "FeatureExtractor/MobilenetV3/expanded_conv/depthwise/depthwise_weights", "shape": [3, 3, 16, 1], "dtype": "float32", "quantization": {"dtype": "uint16", "min": -10.37939142326273, "scale": 0.0002396866668959618, "original_dtype": "float32"}}, {"name": "FeatureExtractor/MobilenetV3/expanded_conv/depthwise/depthwise_bn_offset", "shape": [16], "dtype": "float32", "quantization": {"dtype": "uint16", "min": -16.45997364634715, "scale": 0.000572441178491589, "original_dtype": "float32"}}, {"name": "FeatureExtractor/MobilenetV3/layer_13_2_Conv2d_5_3x3_s2_128_depthwise/depthwise_weights", "shape": [3, 3, 64, 1], "dtype": "float32", "quantization": {"dtype": "uint16", "min": -1.5535700179496073, "scale": 4.2147857242257385e-05, "original_dtype": "float32"}}, {"name": "FeatureExtractor/MobilenetV3/layer_13_2_Conv2d_5_3x3_s2_128_depthwise/depthwise_bn_offset", "shape": [64], "dtype": "float32", "quantization": {"dtype": "uint16", "min": -1.2647227294059225, "scale": 5.7844983964778746e-05, "original_dtype": "float32"}}, {"name": "FeatureExtractor/MobilenetV3/expanded_conv/project/Conv2D_weights", "shape": [1, 1, 16, 16], "dtype": "float32", "quantization": {"dtype": "uint16", "min": -12.968194737786913, "scale": 0.00026641318770234223, "original_dtype": "float32"}}, {"name": "FeatureExtractor/MobilenetV3/expanded_conv/project/Conv2D_bn_offset", "shape": [16], "dtype": "float32", "quantization": {"dtype": "uint16", "min": -38.04470122024398, "scale": 0.002548887928463351, "original_dtype": "float32"}}, {"name": "FeatureExtractor/MobilenetV3/expanded_conv_1/expand/Conv2D_weights", "shape": [1, 1, 16, 72], "dtype": "float32", "quantization": {"dtype": "uint16", "min": -0.14571651771574806, "scale": 6.400901283362532e-06, "original_dtype": "float32"}}, {"name": "FeatureExtractor/MobilenetV3/expanded_conv_1/expand/Conv2D_bn_offset", "shape": [72], "dtype": "float32", "quantization": {"dtype": "uint16", "min": -16.399725845198958, "scale": 0.0003819307819278269, "original_dtype": "float32"}}, {"name": "FeatureExtractor/MobilenetV3/layer_13_2_Conv2d_5_3x3_s2_128/Conv2D_weights", "shape": [1, 1, 64, 128], "dtype": "float32", "quantization": {"dtype": "uint16", "min": -0.5892060286903978, "scale": 2.0651432781549817e-05, "original_dtype": "float32"}}, {"name": "FeatureExtractor/MobilenetV3/expanded_conv_1/depthwise/depthwise_weights", "shape": [3, 3, 72, 1], "dtype": "float32", "quantization": {"dtype": "uint16", "min": -6.854952326779181, "scale": 0.00032392743251012104, "original_dtype": "float32"}}, {"name": "FeatureExtractor/MobilenetV3/expanded_conv_1/depthwise/depthwise_bn_offset", "shape": [72], "dtype": "float32", "quantization": {"dtype": "uint16", "min": -10.856459192619576, "scale": 0.00044820655571875057, "original_dtype": "float32"}}, {"name": "FeatureExtractor/MobilenetV3/expanded_conv_1/project/Conv2D_weights", "shape": [1, 1, 72, 24], "dtype": "float32", "quantization": {"dtype": "uint16", "min": -0.7824629350231342, "scale": 2.7539875229590817e-05, "original_dtype": "float32"}}, {"name": "FeatureExtractor/MobilenetV3/expanded_conv_1/project/Conv2D_bn_offset", "shape": [24], "dtype": "float32", "quantization": {"dtype": "uint16", "min": -7.895250062483385, "scale": 0.00024526265299255645, "original_dtype": "float32"}}, {"name": "FeatureExtractor/MobilenetV3/expanded_conv_2/expand/Conv2D_weights", "shape": [1, 1, 24, 88], "dtype": "float32", "quantization": {"dtype": "uint16", "min": -0.42823383029141887, "scale": 1.4503618176909127e-05, "original_dtype": "float32"}}, {"name": "FeatureExtractor/MobilenetV3/layer_13_2_Conv2d_5_3x3_s2_128/Conv2D_bn_offset", "shape": [128], "dtype": "float32", "quantization": {"dtype": "uint16", "min": -1.536348120939034, "scale": 5.1177485707496136e-05, "original_dtype": "float32"}}, {"name": "FeatureExtractor/MobilenetV3/expanded_conv_2/expand/Conv2D_bn_offset", "shape": [88], "dtype": "float32", "quantization": {"dtype": "uint16", "min": -6.448264404371673, "scale": 0.00015981224824336844, "original_dtype": "float32"}}, {"name": "FeatureExtractor/MobilenetV3/expanded_conv_2/depthwise/depthwise_weights", "shape": [3, 3, 88, 1], "dtype": "float32", "quantization": {"dtype": "uint16", "min": -4.374696428446363, "scale": 0.00014551278700260654, "original_dtype": "float32"}}, {"name": "FeatureExtractor/MobilenetV3/expanded_conv_2/depthwise/depthwise_bn_offset", "shape": [88], "dtype": "float32", "quantization": {"dtype": "uint16", "min": -9.05379988831223, "scale": 0.000277001679311985, "original_dtype": "float32"}}, {"name": "FeatureExtractor/MobilenetV3/expanded_conv_2/project/Conv2D_weights", "shape": [1, 1, 88, 24], "dtype": "float32", "quantization": {"dtype": "uint16", "min": -1.076725574640967, "scale": 3.243344703418781e-05, "original_dtype": "float32"}}, {"name": "FeatureExtractor/MobilenetV3/expanded_conv_2/project/Conv2D_bn_offset", "shape": [24], "dtype": "float32", "quantization": {"dtype": "uint16", "min": -4.302376215519945, "scale": 0.00017051944891284312, "original_dtype": "float32"}}, {"name": "FeatureExtractor/MobilenetV3/expanded_conv_3/expand/Conv2D_weights", "shape": [1, 1, 24, 96], "dtype": "float32", "quantization": {"dtype": "uint16", "min": -1.0217416747134602, "scale": 3.5557392542664354e-05, "original_dtype": "float32"}}, {"name": "FeatureExtractor/MobilenetV3/expanded_conv_3/expand/Conv2D_bn_offset", "shape": [96], "dtype": "float32", "quantization": {"dtype": "uint16", "min": -9.068164361655562, "scale": 0.00021466667522798008, "original_dtype": "float32"}}, {"name": "FeatureExtractor/MobilenetV3/expanded_conv_3/depthwise/depthwise_weights", "shape": [5, 5, 96, 1], "dtype": "float32", "quantization": {"dtype": "uint16", "min": -15.201603122815085, "scale": 0.0004182469356412008, "original_dtype": "float32"}}, {"name": "FeatureExtractor/MobilenetV3/expanded_conv_3/depthwise/depthwise_bn_offset", "shape": [96], "dtype": "float32", "quantization": {"dtype": "uint16", "min": -6.419909151222355, "scale": 0.00022348775155685982, "original_dtype": "float32"}}, {"name": "FeatureExtractor/MobilenetV3/expanded_conv_3/project/Conv2D_weights", "shape": [1, 1, 96, 40], "dtype": "float32", "quantization": {"dtype": "uint16", "min": -0.6121646647132434, "scale": 1.802658101573201e-05, "original_dtype": "float32"}}, {"name": "FeatureExtractor/MobilenetV3/expanded_conv_3/project/Conv2D_bn_offset", "shape": [40], "dtype": "float32", "quantization": {"dtype": "uint16", "min": -5.635627565378818, "scale": 0.00016052260354844532, "original_dtype": "float32"}}, {"name": "FeatureExtractor/MobilenetV3/expanded_conv_4/expand/Conv2D_weights", "shape": [1, 1, 40, 240], "dtype": "float32", "quantization": {"dtype": "uint16", "min": -0.2615171271268805, "scale": 7.066311630329933e-06, "original_dtype": "float32"}}, {"name": "FeatureExtractor/MobilenetV3/expanded_conv_4/expand/Conv2D_bn_offset", "shape": [240], "dtype": "float32", "quantization": {"dtype": "uint16", "min": -4.824890646254561, "scale": 0.0001442979527545701, "original_dtype": "float32"}}, {"name": "FeatureExtractor/MobilenetV3/expanded_conv_4/depthwise/depthwise_weights", "shape": [5, 5, 240, 1], "dtype": "float32", "quantization": {"dtype": "uint16", "min": -7.088675675843631, "scale": 0.00019083795062171575, "original_dtype": "float32"}}, {"name": "FeatureExtractor/MobilenetV3/expanded_conv_4/depthwise/depthwise_bn_offset", "shape": [240], "dtype": "float32", "quantization": {"dtype": "uint16", "min": -4.638900548703995, "scale": 0.00021581300528978806, "original_dtype": "float32"}}, {"name": "BoxPredictor_5/BoxEncodingPredictor_depthwise/depthwise_weights", "shape": [3, 3, 128, 1], "dtype": "float32", "quantization": {"dtype": "uint16", "min": -1.6182488440266733, "scale": 4.960605861157113e-05, "original_dtype": "float32"}}, {"name": "BoxPredictor_5/BoxEncodingPredictor_depthwise/depthwise_bn_offset", "shape": [128], "dtype": "float32", "quantization": {"dtype": "uint16", "min": -0.8036763200873032, "scale": 3.202790898207879e-05, "original_dtype": "float32"}}, {"name": "FeatureExtractor/MobilenetV3/expanded_conv_4/project/Conv2D_weights", "shape": [1, 1, 240, 40], "dtype": "float32", "quantization": {"dtype": "uint16", "min": -0.9253829154331971, "scale": 3.25300704971771e-05, "original_dtype": "float32"}}, {"name": "FeatureExtractor/MobilenetV3/expanded_conv_4/project/Conv2D_bn_offset", "shape": [40], "dtype": "float32", "quantization": {"dtype": "uint16", "min": -2.3454861498537514, "scale": 7.881867564533072e-05, "original_dtype": "float32"}}, {"name": "FeatureExtractor/MobilenetV3/expanded_conv_5/expand/Conv2D_weights", "shape": [1, 1, 40, 240], "dtype": "float32", "quantization": {"dtype": "uint16", "min": -0.2830478269193286, "scale": 9.166056571221782e-06, "original_dtype": "float32"}}, {"name": "FeatureExtractor/MobilenetV3/expanded_conv_5/expand/Conv2D_bn_offset", "shape": [240], "dtype": "float32", "quantization": {"dtype": "uint16", "min": -3.7251490894404067, "scale": 9.045136677934166e-05, "original_dtype": "float32"}}, {"name": "FeatureExtractor/MobilenetV3/expanded_conv_5/depthwise/depthwise_weights", "shape": [5, 5, 240, 1], "dtype": "float32", "quantization": {"dtype": "uint16", "min": -10.627568045497041, "scale": 0.0003245058945189936, "original_dtype": "float32"}}, {"name": "FeatureExtractor/MobilenetV3/expanded_conv_5/depthwise/depthwise_bn_offset", "shape": [240], "dtype": "float32", "quantization": {"dtype": "uint16", "min": -5.965080090039126, "scale": 0.00012407604813293797, "original_dtype": "float32"}}, {"name": "FeatureExtractor/MobilenetV3/expanded_conv_5/project/Conv2D_weights", "shape": [1, 1, 240, 40], "dtype": "float32", "quantization": {"dtype": "uint16", "min": -1.2732837514963904, "scale": 3.892881715471415e-05, "original_dtype": "float32"}}, {"name": "FeatureExtractor/MobilenetV3/expanded_conv_5/project/Conv2D_bn_offset", "shape": [40], "dtype": "float32", "quantization": {"dtype": "uint16", "min": -1.4002255353391366, "scale": 3.8549281043392246e-05, "original_dtype": "float32"}}, {"name": "FeatureExtractor/MobilenetV3/expanded_conv_6/expand/Conv2D_weights", "shape": [1, 1, 40, 120], "dtype": "float32", "quantization": {"dtype": "uint16", "min": -0.25905753737266507, "scale": 7.3847644633028816e-06, "original_dtype": "float32"}}, {"name": "FeatureExtractor/MobilenetV3/expanded_conv_6/expand/Conv2D_bn_offset", "shape": [120], "dtype": "float32", "quantization": {"dtype": "uint16", "min": -4.071111366184368, "scale": 0.00010005926625665123, "original_dtype": "float32"}}, {"name": "FeatureExtractor/MobilenetV3/expanded_conv_6/depthwise/depthwise_weights", "shape": [5, 5, 120, 1], "dtype": "float32", "quantization": {"dtype": "uint16", "min": -8.94213595186226, "scale": 0.00021656904702984406, "original_dtype": "float32"}}, {"name": "FeatureExtractor/MobilenetV3/expanded_conv_6/depthwise/depthwise_bn_offset", "shape": [120], "dtype": "float32", "quantization": {"dtype": "uint16", "min": -8.364831285177639, "scale": 0.00029400834013488587, "original_dtype": "float32"}}, {"name": "FeatureExtractor/MobilenetV3/expanded_conv_6/project/Conv2D_weights", "shape": [1, 1, 120, 48], "dtype": "float32", "quantization": {"dtype": "uint16", "min": -0.5818407626085463, "scale": 1.7636348174003404e-05, "original_dtype": "float32"}}, {"name": "FeatureExtractor/MobilenetV3/expanded_conv_6/project/Conv2D_bn_offset", "shape": [48], "dtype": "float32", "quantization": {"dtype": "uint16", "min": -2.9306272039153693, "scale": 0.00011165144787851911, "original_dtype": "float32"}}, {"name": "FeatureExtractor/MobilenetV3/expanded_conv_7/expand/Conv2D_weights", "shape": [1, 1, 48, 144], "dtype": "float32", "quantization": {"dtype": "uint16", "min": -0.36684250823145576, "scale": 9.966650589057944e-06, "original_dtype": "float32"}}, {"name": "FeatureExtractor/MobilenetV3/expanded_conv_7/expand/Conv2D_bn_offset", "shape": [144], "dtype": "float32", "quantization": {"dtype": "uint16", "min": -3.085123688057594, "scale": 7.363942446730144e-05, "original_dtype": "float32"}}, {"name": "FeatureExtractor/MobilenetV3/expanded_conv_7/depthwise/depthwise_weights", "shape": [5, 5, 144, 1], "dtype": "float32", "quantization": {"dtype": "uint16", "min": -3.000051093914602, "scale": 9.411039255645279e-05, "original_dtype": "float32"}}, {"name": "FeatureExtractor/MobilenetV3/expanded_conv_7/depthwise/depthwise_bn_offset", "shape": [144], "dtype": "float32", "quantization": {"dtype": "uint16", "min": -2.1152481415546975, "scale": 9.895434793949746e-05, "original_dtype": "float32"}}, {"name": "FeatureExtractor/MobilenetV3/expanded_conv_7/project/Conv2D_weights", "shape": [1, 1, 144, 48], "dtype": "float32", "quantization": {"dtype": "uint16", "min": -2.091307295699355, "scale": 7.221364971337552e-05, "original_dtype": "float32"}}, {"name": "FeatureExtractor/MobilenetV3/expanded_conv_7/project/Conv2D_bn_offset", "shape": [48], "dtype": "float32", "quantization": {"dtype": "uint16", "min": -1.1793115367157796, "scale": 3.0027028305939646e-05, "original_dtype": "float32"}}, {"name": "FeatureExtractor/MobilenetV3/expanded_conv_8/expand/Conv2D_weights", "shape": [1, 1, 48, 288], "dtype": "float32", "quantization": {"dtype": "uint16", "min": -0.25447092747682837, "scale": 8.070243799214397e-06, "original_dtype": "float32"}}, {"name": "FeatureExtractor/MobilenetV3/expanded_conv_8/expand/Conv2D_bn_offset", "shape": [288], "dtype": "float32", "quantization": {"dtype": "uint16", "min": -1.9569312055259909, "scale": 5.808986005479669e-05, "original_dtype": "float32"}}, {"name": "BoxPredictor_0/BoxEncodingPredictor_depthwise/depthwise_weights", "shape": [3, 3, 288, 1], "dtype": "float32", "quantization": {"dtype": "uint16", "min": -2.9081032840594587, "scale": 8.137969173246002e-05, "original_dtype": "float32"}}, {"name": "BoxPredictor_0/BoxEncodingPredictor_depthwise/depthwise_bn_offset", "shape": [288], "dtype": "float32", "quantization": {"dtype": "uint16", "min": -1.5055934716136847, "scale": 9.178768954542978e-05, "original_dtype": "float32"}}, {"name": "BoxPredictor_0/ClassPredictor_depthwise/depthwise_weights", "shape": [3, 3, 288, 1], "dtype": "float32", "quantization": {"dtype": "uint16", "min": -7.108663928002162, "scale": 0.00020634728383170283, "original_dtype": "float32"}}, {"name": "BoxPredictor_0/ClassPredictor_depthwise/depthwise_bn_offset", "shape": [288], "dtype": "float32", "quantization": {"dtype": "uint16", "min": -3.8011256982162034, "scale": 0.00012164380754660149, "original_dtype": "float32"}}, {"name": "FeatureExtractor/MobilenetV3/expanded_conv_8/depthwise/depthwise_weights", "shape": [5, 5, 288, 1], "dtype": "float32", "quantization": {"dtype": "uint16", "min": -4.00002439198327, "scale": 0.00012110643349732871, "original_dtype": "float32"}}, {"name": "FeatureExtractor/MobilenetV3/expanded_conv_8/depthwise/depthwise_bn_offset", "shape": [288], "dtype": "float32", "quantization": {"dtype": "uint16", "min": -6.440009904418919, "scale": 0.00016373877868396225, "original_dtype": "float32"}}, {"name": "FeatureExtractor/MobilenetV3/expanded_conv_8/project/Conv2D_weights", "shape": [1, 1, 288, 48], "dtype": "float32", "quantization": {"dtype": "uint16", "min": -1.05929612762333, "scale": 2.8468049653945983e-05, "original_dtype": "float32"}}, {"name": "FeatureExtractor/MobilenetV3/expanded_conv_8/project/Conv2D_bn_offset", "shape": [48], "dtype": "float32", "quantization": {"dtype": "uint16", "min": -1.015225586989765, "scale": 2.4119778265894493e-05, "original_dtype": "float32"}}, {"name": "FeatureExtractor/MobilenetV3/expanded_conv_9/expand/Conv2D_weights", "shape": [1, 1, 48, 288], "dtype": "float32", "quantization": {"dtype": "uint16", "min": -0.45227941830443635, "scale": 1.307695074031216e-05, "original_dtype": "float32"}}, {"name": "FeatureExtractor/MobilenetV3/expanded_conv_9/expand/Conv2D_bn_offset", "shape": [288], "dtype": "float32", "quantization": {"dtype": "uint16", "min": -1.6006062783210495, "scale": 6.717897583820404e-05, "original_dtype": "float32"}}, {"name": "FeatureExtractor/MobilenetV3/expanded_conv_9/depthwise/depthwise_weights", "shape": [5, 5, 288, 1], "dtype": "float32", "quantization": {"dtype": "uint16", "min": -4.3542521009330954, "scale": 0.00013517064852491527, "original_dtype": "float32"}}, {"name": "FeatureExtractor/MobilenetV3/expanded_conv_9/depthwise/depthwise_bn_offset", "shape": [288], "dtype": "float32", "quantization": {"dtype": "uint16", "min": -4.343647857093243, "scale": 0.00016231867926357413, "original_dtype": "float32"}}, {"name": "FeatureExtractor/MobilenetV3/expanded_conv_9/project/Conv2D_weights", "shape": [1, 1, 288, 48], "dtype": "float32", "quantization": {"dtype": "uint16", "min": -1.216566136529628, "scale": 3.903880038923172e-05, "original_dtype": "float32"}}, {"name": "FeatureExtractor/MobilenetV3/expanded_conv_9/project/Conv2D_bn_offset", "shape": [48], "dtype": "float32", "quantization": {"dtype": "uint16", "min": -1.0568112615790657, "scale": 3.0058058010155743e-05, "original_dtype": "float32"}}, {"name": "FeatureExtractor/MobilenetV3/expanded_conv_10/expand/Conv2D_weights", "shape": [1, 1, 48, 288], "dtype": "float32", "quantization": {"dtype": "uint16", "min": -0.2680077173157434, "scale": 9.659328094707107e-06, "original_dtype": "float32"}}, {"name": "FeatureExtractor/MobilenetV3/expanded_conv_10/expand/Conv2D_bn_offset", "shape": [288], "dtype": "float32", "quantization": {"dtype": "uint16", "min": -2.835024290084111, "scale": 6.0868779845502215e-05, "original_dtype": "float32"}}, {"name": "FeatureExtractor/MobilenetV3/expanded_conv_10/depthwise/depthwise_weights", "shape": [5, 5, 288, 1], "dtype": "float32", "quantization": {"dtype": "uint16", "min": -4.982217894977824, "scale": 0.00013227361267397186, "original_dtype": "float32"}}, {"name": "FeatureExtractor/MobilenetV3/expanded_conv_10/depthwise/depthwise_bn_offset", "shape": [288], "dtype": "float32", "quantization": {"dtype": "uint16", "min": -1.8120016485473114, "scale": 7.051138798923307e-05, "original_dtype": "float32"}}, {"name": "FeatureExtractor/MobilenetV3/expanded_conv_10/project/Conv2D_weights", "shape": [1, 1, 288, 48], "dtype": "float32", "quantization": {"dtype": "uint16", "min": -1.7507853842985805, "scale": 5.141505298656703e-05, "original_dtype": "float32"}}, {"name": "FeatureExtractor/MobilenetV3/expanded_conv_10/project/Conv2D_bn_offset", "shape": [48], "dtype": "float32", "quantization": {"dtype": "uint16", "min": -2.0612750210732558, "scale": 5.329183849306486e-05, "original_dtype": "float32"}}, {"name": "FeatureExtractor/MobilenetV3/Conv_1/Conv2D_weights", "shape": [1, 1, 48, 288], "dtype": "float32", "quantization": {"dtype": "uint16", "min": -0.35494567897997015, "scale": 1.0004387919049865e-05, "original_dtype": "float32"}}, {"name": "FeatureExtractor/MobilenetV3/Conv_1/Conv2D_bn_offset", "shape": [288], "dtype": "float32", "quantization": {"dtype": "uint16", "min": -2.602996322420539, "scale": 6.993354080816042e-05, "original_dtype": "float32"}}, {"name": "BoxPredictor_1/BoxEncodingPredictor_depthwise/depthwise_weights", "shape": [3, 3, 288, 1], "dtype": "float32", "quantization": {"dtype": "uint16", "min": -2.9235453778312963, "scale": 0.00011250463241096346, "original_dtype": "float32"}}, {"name": "BoxPredictor_1/BoxEncodingPredictor_depthwise/depthwise_bn_offset", "shape": [288], "dtype": "float32", "quantization": {"dtype": "uint16", "min": -1.0504806313806117, "scale": 8.124995215257264e-05, "original_dtype": "float32"}}, {"name": "BoxPredictor_1/ClassPredictor_depthwise/depthwise_weights", "shape": [3, 3, 288, 1], "dtype": "float32", "quantization": {"dtype": "uint16", "min": -3.0032887467714455, "scale": 0.00011672776815155838, "original_dtype": "float32"}}, {"name": "BoxPredictor_1/ClassPredictor_depthwise/depthwise_bn_offset", "shape": [288], "dtype": "float32", "quantization": {"dtype": "uint16", "min": -1.809304189067179, "scale": 6.48403164086575e-05, "original_dtype": "float32"}}, {"name": "FeatureExtractor/MobilenetV3/layer_13_1_Conv2d_2_1x1_256/Conv2D_weights", "shape": [1, 1, 288, 256], "dtype": "float32", "quantization": {"dtype": "uint16", "min": -0.3218490442258684, "scale": 1.0384907209146502e-05, "original_dtype": "float32"}}, {"name": "FeatureExtractor/MobilenetV3/layer_13_1_Conv2d_2_1x1_256/Conv2D_bn_offset", "shape": [256], "dtype": "float32", "quantization": {"dtype": "uint16", "min": -1.1246639220003516, "scale": 3.6887530650410035e-05, "original_dtype": "float32"}}, {"name": "FeatureExtractor/MobilenetV3/layer_13_2_Conv2d_2_3x3_s2_512_depthwise/depthwise_weights", "shape": [3, 3, 256, 1], "dtype": "float32", "quantization": {"dtype": "uint16", "min": -1.5054753066528086, "scale": 6.32207326524507e-05, "original_dtype": "float32"}}, {"name": "FeatureExtractor/MobilenetV3/layer_13_2_Conv2d_2_3x3_s2_512_depthwise/depthwise_bn_offset", "shape": [256], "dtype": "float32", "quantization": {"dtype": "uint16", "min": -1.294575152219256, "scale": 6.319933373458581e-05, "original_dtype": "float32"}}, {"name": "FeatureExtractor/MobilenetV3/layer_13_2_Conv2d_2_3x3_s2_512/Conv2D_weights", "shape": [1, 1, 256, 512], "dtype": "float32", "quantization": {"dtype": "uint16", "min": -0.6088409235277902, "scale": 1.9028062741125424e-05, "original_dtype": "float32"}}, {"name": "FeatureExtractor/MobilenetV3/layer_13_2_Conv2d_2_3x3_s2_512/Conv2D_bn_offset", "shape": [512], "dtype": "float32", "quantization": {"dtype": "uint16", "min": -2.4386678537788025, "scale": 7.475073117271954e-05, "original_dtype": "float32"}}, {"name": "BoxPredictor_2/BoxEncodingPredictor_depthwise/depthwise_weights", "shape": [3, 3, 512, 1], "dtype": "float32", "quantization": {"dtype": "uint16", "min": -1.2709909935896881, "scale": 5.473690756200207e-05, "original_dtype": "float32"}}, {"name": "BoxPredictor_2/BoxEncodingPredictor_depthwise/depthwise_bn_offset", "shape": [512], "dtype": "float32", "quantization": {"dtype": "uint16", "min": -1.556275107981166, "scale": 4.8241633849385184e-05, "original_dtype": "float32"}}, {"name": "BoxPredictor_2/ClassPredictor_depthwise/depthwise_weights", "shape": [3, 3, 512, 1], "dtype": "float32", "quantization": {"dtype": "uint16", "min": -1.1503077790913052, "scale": 4.4907584582912556e-05, "original_dtype": "float32"}}, {"name": "BoxPredictor_2/ClassPredictor_depthwise/depthwise_bn_offset", "shape": [512], "dtype": "float32", "quantization": {"dtype": "uint16", "min": -1.5218718421207265, "scale": 8.092480283530397e-05, "original_dtype": "float32"}}, {"name": "FeatureExtractor/MobilenetV3/layer_13_1_Conv2d_3_1x1_128/Conv2D_weights", "shape": [1, 1, 512, 128], "dtype": "float32", "quantization": {"dtype": "uint16", "min": -0.16752035271487503, "scale": 5.2527390165206015e-06, "original_dtype": "float32"}}, {"name": "FeatureExtractor/MobilenetV3/layer_13_1_Conv2d_3_1x1_128/Conv2D_bn_offset", "shape": [128], "dtype": "float32", "quantization": {"dtype": "uint16", "min": -1.4202809653511725, "scale": 4.505109957974918e-05, "original_dtype": "float32"}}, {"name": "FeatureExtractor/MobilenetV3/layer_13_2_Conv2d_3_3x3_s2_256_depthwise/depthwise_weights", "shape": [3, 3, 128, 1], "dtype": "float32", "quantization": {"dtype": "uint16", "min": -1.5946532238318298, "scale": 5.948422947746307e-05, "original_dtype": "float32"}}, {"name": "FeatureExtractor/MobilenetV3/layer_13_2_Conv2d_3_3x3_s2_256_depthwise/depthwise_bn_offset", "shape": [128], "dtype": "float32", "quantization": {"dtype": "uint16", "min": -1.0498462609698318, "scale": 5.426122911772958e-05, "original_dtype": "float32"}}, {"name": "FeatureExtractor/MobilenetV3/layer_13_2_Conv2d_3_3x3_s2_256/Conv2D_weights", "shape": [1, 1, 128, 256], "dtype": "float32", "quantization": {"dtype": "uint16", "min": -0.7512222843261298, "scale": 1.8635664814222665e-05, "original_dtype": "float32"}}, {"name": "FeatureExtractor/MobilenetV3/layer_13_2_Conv2d_3_3x3_s2_256/Conv2D_bn_offset", "shape": [256], "dtype": "float32", "quantization": {"dtype": "uint16", "min": -1.6520049244586068, "scale": 6.581955155418968e-05, "original_dtype": "float32"}}, {"name": "BoxPredictor_3/BoxEncodingPredictor_depthwise/depthwise_weights", "shape": [3, 3, 256, 1], "dtype": "float32", "quantization": {"dtype": "uint16", "min": -1.3324692094754398, "scale": 5.368746563018009e-05, "original_dtype": "float32"}}, {"name": "BoxPredictor_3/BoxEncodingPredictor_depthwise/depthwise_bn_offset", "shape": [256], "dtype": "float32", "quantization": {"dtype": "uint16", "min": -0.7022323780841264, "scale": 3.045900577246265e-05, "original_dtype": "float32"}}, {"name": "BoxPredictor_3/ClassPredictor_depthwise/depthwise_weights", "shape": [3, 3, 256, 1], "dtype": "float32", "quantization": {"dtype": "uint16", "min": -1.5522306852740155, "scale": 5.391561949545035e-05, "original_dtype": "float32"}}, {"name": "BoxPredictor_3/ClassPredictor_depthwise/depthwise_bn_offset", "shape": [256], "dtype": "float32", "quantization": {"dtype": "uint16", "min": -1.9560785440537498, "scale": 6.589007121143092e-05, "original_dtype": "float32"}}, {"name": "FeatureExtractor/MobilenetV3/layer_13_1_Conv2d_4_1x1_128/Conv2D_weights", "shape": [1, 1, 256, 128], "dtype": "float32", "quantization": {"dtype": "uint16", "min": -0.1476895174061469, "scale": 5.592393403996626e-06, "original_dtype": "float32"}}, {"name": "FeatureExtractor/MobilenetV3/layer_13_1_Conv2d_4_1x1_128/Conv2D_bn_offset", "shape": [128], "dtype": "float32", "quantization": {"dtype": "uint16", "min": -1.6610466117597675, "scale": 5.4337616924327506e-05, "original_dtype": "float32"}}, {"name": "BoxPredictor_5/ClassPredictor_depthwise/depthwise_weights", "shape": [3, 3, 128, 1], "dtype": "float32", "quantization": {"dtype": "uint16", "min": -3.0822366684154523, "scale": 7.710796458648219e-05, "original_dtype": "float32"}}, {"name": "FeatureExtractor/MobilenetV3/layer_13_2_Conv2d_4_3x3_s2_256_depthwise/depthwise_weights", "shape": [3, 3, 128, 1], "dtype": "float32", "quantization": {"dtype": "uint16", "min": -2.190426177499023, "scale": 6.442998433682451e-05, "original_dtype": "float32"}}, {"name": "FeatureExtractor/MobilenetV3/layer_13_2_Conv2d_4_3x3_s2_256_depthwise/depthwise_bn_offset", "shape": [128], "dtype": "float32", "quantization": {"dtype": "uint16", "min": -1.2390618457941167, "scale": 5.3518566248882024e-05, "original_dtype": "float32"}}, {"name": "FeatureExtractor/MobilenetV3/layer_13_2_Conv2d_4_3x3_s2_256/Conv2D_weights", "shape": [1, 1, 128, 256], "dtype": "float32", "quantization": {"dtype": "uint16", "min": -0.5447177455964965, "scale": 1.6756421360788007e-05, "original_dtype": "float32"}}, {"name": "FeatureExtractor/MobilenetV3/layer_13_2_Conv2d_4_3x3_s2_256/Conv2D_bn_offset", "shape": [256], "dtype": "float32", "quantization": {"dtype": "uint16", "min": -1.5319453228563196, "scale": 5.82156687386023e-05, "original_dtype": "float32"}}, {"name": "BoxPredictor_5/ClassPredictor_depthwise/depthwise_bn_offset", "shape": [128], "dtype": "float32", "quantization": {"dtype": "uint16", "min": -0.651784802455419, "scale": 7.434524951014247e-05, "original_dtype": "float32"}}, {"name": "BoxPredictor_4/BoxEncodingPredictor_depthwise/depthwise_weights", "shape": [3, 3, 256, 1], "dtype": "float32", "quantization": {"dtype": "uint16", "min": -1.3608220557958408, "scale": 4.77917417923664e-05, "original_dtype": "float32"}}, {"name": "BoxPredictor_4/BoxEncodingPredictor_depthwise/depthwise_bn_offset", "shape": [256], "dtype": "float32", "quantization": {"dtype": "uint16", "min": -1.0094068656008095, "scale": 3.2502797063395464e-05, "original_dtype": "float32"}}, {"name": "BoxPredictor_4/ClassPredictor_depthwise/depthwise_weights", "shape": [3, 3, 256, 1], "dtype": "float32", "quantization": {"dtype": "uint16", "min": -1.6130052986775856, "scale": 5.0188409679130824e-05, "original_dtype": "float32"}}, {"name": "BoxPredictor_4/ClassPredictor_depthwise/depthwise_bn_offset", "shape": [256], "dtype": "float32", "quantization": {"dtype": "uint16", "min": -0.9158623520038471, "scale": 5.0460735647594885e-05, "original_dtype": "float32"}}, {"name": "FeatureExtractor/MobilenetV3/layer_13_1_Conv2d_5_1x1_64/Conv2D_weights", "shape": [1, 1, 256, 64], "dtype": "float32", "quantization": {"dtype": "uint16", "min": -0.24154548266845863, "scale": 7.272837608950338e-06, "original_dtype": "float32"}}, {"name": "FeatureExtractor/MobilenetV3/layer_13_1_Conv2d_5_1x1_64/Conv2D_bn_offset", "shape": [64], "dtype": "float32", "quantization": {"dtype": "uint16", "min": -2.023107196639493, "scale": 6.897975371269027e-05, "original_dtype": "float32"}}, {"name": "Preprocessor/map/while/ResizeImage/resize/ExpandDims/dim", "shape": [], "dtype": "int32"}, {"name": "Preprocessor/map/while/ResizeImage/stack", "shape": [2], "dtype": "int32"}, {"name": "Preprocessor/map/while/add/y", "shape": [], "dtype": "int32"}, {"name": "Preprocessor/map/while/add_1/y", "shape": [], "dtype": "int32"}]}]}